<?xml version="1.0" ?>
<net name="yolo-v4-tf" version="11">
	<layers>
		<layer id="152" name="image_input" type="Parameter" version="opset1">
			<data shape="1,608,608,3" element_type="f32"/>
			<rt_info>
				<attribute name="fused_names" version="0" value="image_input"/>
				<attribute name="old_api_map_element_type" version="0" value="f16"/>
				<attribute name="old_api_map_order" version="0" value="0,2,3,1"/>
			</rt_info>
			<output>
				<port id="0" precision="FP32" names="image_input,image_input:0">
					<dim>1</dim>
					<dim>608</dim>
					<dim>608</dim>
					<dim>3</dim>
					<rt_info>
						<attribute name="layout" version="0" layout="[N,H,W,C]"/>
					</rt_info>
				</port>
			</output>
		</layer>
		<layer id="0" name="3223322722344" type="Const" version="opset1">
			<data offset="0" size="4" shape="1,1,1,1" element_type="f32"/>
			<output>
				<port id="0" precision="FP32">
					<dim>1</dim>
					<dim>1</dim>
					<dim>1</dim>
					<dim>1</dim>
				</port>
			</output>
		</layer>
		<layer id="1" name="3224322821831" type="Const" version="opset1">
			<data offset="4" size="4" shape="1,1,1,1" element_type="f32"/>
			<output>
				<port id="0" precision="FP32">
					<dim>1</dim>
					<dim>1</dim>
					<dim>1</dim>
					<dim>1</dim>
				</port>
			</output>
		</layer>
		<layer id="2" name="3225322924219" type="Const" version="opset1">
			<data offset="0" size="4" shape="1,1,1,1" element_type="f32"/>
			<output>
				<port id="0" precision="FP32">
					<dim>1</dim>
					<dim>1</dim>
					<dim>1</dim>
					<dim>1</dim>
				</port>
			</output>
		</layer>
		<layer id="3" name="3226323023904" type="Const" version="opset1">
			<data offset="4" size="4" shape="1,1,1,1" element_type="f32"/>
			<output>
				<port id="0" precision="FP32">
					<dim>1</dim>
					<dim>1</dim>
					<dim>1</dim>
					<dim>1</dim>
				</port>
			</output>
		</layer>
		<layer id="4" name="5623562723295" type="Const" version="opset1">
			<data offset="8" size="4" shape="1,1,1,1" element_type="f32"/>
			<output>
				<port id="0" precision="FP32">
					<dim>1</dim>
					<dim>1</dim>
					<dim>1</dim>
					<dim>1</dim>
				</port>
			</output>
		</layer>
		<layer id="5" name="5624562823205" type="Const" version="opset1">
			<data offset="12" size="4" shape="1,1,1,1" element_type="f32"/>
			<output>
				<port id="0" precision="FP32">
					<dim>1</dim>
					<dim>1</dim>
					<dim>1</dim>
					<dim>1</dim>
				</port>
			</output>
		</layer>
		<layer id="6" name="5625562922395" type="Const" version="opset1">
			<data offset="8" size="4" shape="1,1,1,1" element_type="f32"/>
			<output>
				<port id="0" precision="FP32">
					<dim>1</dim>
					<dim>1</dim>
					<dim>1</dim>
					<dim>1</dim>
				</port>
			</output>
		</layer>
		<layer id="7" name="5626563023541" type="Const" version="opset1">
			<data offset="12" size="4" shape="1,1,1,1" element_type="f32"/>
			<output>
				<port id="0" precision="FP32">
					<dim>1</dim>
					<dim>1</dim>
					<dim>1</dim>
					<dim>1</dim>
				</port>
			</output>
		</layer>
		<layer id="8" name="4833483722509" type="Const" version="opset1">
			<data offset="16" size="4" shape="1,1,1,1" element_type="f32"/>
			<output>
				<port id="0" precision="FP32">
					<dim>1</dim>
					<dim>1</dim>
					<dim>1</dim>
					<dim>1</dim>
				</port>
			</output>
		</layer>
		<layer id="9" name="4834483823010" type="Const" version="opset1">
			<data offset="20" size="4" shape="1,1,1,1" element_type="f32"/>
			<output>
				<port id="0" precision="FP32">
					<dim>1</dim>
					<dim>1</dim>
					<dim>1</dim>
					<dim>1</dim>
				</port>
			</output>
		</layer>
		<layer id="10" name="4835483922272" type="Const" version="opset1">
			<data offset="16" size="4" shape="1,1,1,1" element_type="f32"/>
			<output>
				<port id="0" precision="FP32">
					<dim>1</dim>
					<dim>1</dim>
					<dim>1</dim>
					<dim>1</dim>
				</port>
			</output>
		</layer>
		<layer id="11" name="4836484024516" type="Const" version="opset1">
			<data offset="20" size="4" shape="1,1,1,1" element_type="f32"/>
			<output>
				<port id="0" precision="FP32">
					<dim>1</dim>
					<dim>1</dim>
					<dim>1</dim>
					<dim>1</dim>
				</port>
			</output>
		</layer>
		<layer id="12" name="4893489722374" type="Const" version="opset1">
			<data offset="24" size="4" shape="1,1,1,1" element_type="f32"/>
			<output>
				<port id="0" precision="FP32">
					<dim>1</dim>
					<dim>1</dim>
					<dim>1</dim>
					<dim>1</dim>
				</port>
			</output>
		</layer>
		<layer id="13" name="4894489821960" type="Const" version="opset1">
			<data offset="28" size="4" shape="1,1,1,1" element_type="f32"/>
			<output>
				<port id="0" precision="FP32">
					<dim>1</dim>
					<dim>1</dim>
					<dim>1</dim>
					<dim>1</dim>
				</port>
			</output>
		</layer>
		<layer id="14" name="4895489921891" type="Const" version="opset1">
			<data offset="24" size="4" shape="1,1,1,1" element_type="f32"/>
			<output>
				<port id="0" precision="FP32">
					<dim>1</dim>
					<dim>1</dim>
					<dim>1</dim>
					<dim>1</dim>
				</port>
			</output>
		</layer>
		<layer id="15" name="4896490023694" type="Const" version="opset1">
			<data offset="28" size="4" shape="1,1,1,1" element_type="f32"/>
			<output>
				<port id="0" precision="FP32">
					<dim>1</dim>
					<dim>1</dim>
					<dim>1</dim>
					<dim>1</dim>
				</port>
			</output>
		</layer>
		<layer id="16" name="5583558723406" type="Const" version="opset1">
			<data offset="32" size="4" shape="1,1,1,1" element_type="f32"/>
			<output>
				<port id="0" precision="FP32">
					<dim>1</dim>
					<dim>1</dim>
					<dim>1</dim>
					<dim>1</dim>
				</port>
			</output>
		</layer>
		<layer id="17" name="5584558822521" type="Const" version="opset1">
			<data offset="36" size="4" shape="1,1,1,1" element_type="f32"/>
			<output>
				<port id="0" precision="FP32">
					<dim>1</dim>
					<dim>1</dim>
					<dim>1</dim>
					<dim>1</dim>
				</port>
			</output>
		</layer>
		<layer id="18" name="5585558922260" type="Const" version="opset1">
			<data offset="32" size="4" shape="1,1,1,1" element_type="f32"/>
			<output>
				<port id="0" precision="FP32">
					<dim>1</dim>
					<dim>1</dim>
					<dim>1</dim>
					<dim>1</dim>
				</port>
			</output>
		</layer>
		<layer id="19" name="5586559022287" type="Const" version="opset1">
			<data offset="36" size="4" shape="1,1,1,1" element_type="f32"/>
			<output>
				<port id="0" precision="FP32">
					<dim>1</dim>
					<dim>1</dim>
					<dim>1</dim>
					<dim>1</dim>
				</port>
			</output>
		</layer>
		<layer id="20" name="3523352724099" type="Const" version="opset1">
			<data offset="40" size="4" shape="1,1,1,1" element_type="f32"/>
			<output>
				<port id="0" precision="FP32">
					<dim>1</dim>
					<dim>1</dim>
					<dim>1</dim>
					<dim>1</dim>
				</port>
			</output>
		</layer>
		<layer id="21" name="3524352822881" type="Const" version="opset1">
			<data offset="44" size="4" shape="1,1,1,1" element_type="f32"/>
			<output>
				<port id="0" precision="FP32">
					<dim>1</dim>
					<dim>1</dim>
					<dim>1</dim>
					<dim>1</dim>
				</port>
			</output>
		</layer>
		<layer id="22" name="3525352921813" type="Const" version="opset1">
			<data offset="40" size="4" shape="1,1,1,1" element_type="f32"/>
			<output>
				<port id="0" precision="FP32">
					<dim>1</dim>
					<dim>1</dim>
					<dim>1</dim>
					<dim>1</dim>
				</port>
			</output>
		</layer>
		<layer id="23" name="3526353023463" type="Const" version="opset1">
			<data offset="44" size="4" shape="1,1,1,1" element_type="f32"/>
			<output>
				<port id="0" precision="FP32">
					<dim>1</dim>
					<dim>1</dim>
					<dim>1</dim>
					<dim>1</dim>
				</port>
			</output>
		</layer>
		<layer id="24" name="7278728222794" type="Const" version="opset1">
			<data offset="48" size="4" shape="1,1,1,1" element_type="f32"/>
			<output>
				<port id="0" precision="FP32">
					<dim>1</dim>
					<dim>1</dim>
					<dim>1</dim>
					<dim>1</dim>
				</port>
			</output>
		</layer>
		<layer id="25" name="7279728322518" type="Const" version="opset1">
			<data offset="52" size="4" shape="1,1,1,1" element_type="f32"/>
			<output>
				<port id="0" precision="FP32">
					<dim>1</dim>
					<dim>1</dim>
					<dim>1</dim>
					<dim>1</dim>
				</port>
			</output>
		</layer>
		<layer id="26" name="7280728424543" type="Const" version="opset1">
			<data offset="48" size="4" shape="1,1,1,1" element_type="f32"/>
			<output>
				<port id="0" precision="FP32">
					<dim>1</dim>
					<dim>1</dim>
					<dim>1</dim>
					<dim>1</dim>
				</port>
			</output>
		</layer>
		<layer id="27" name="7281728522593" type="Const" version="opset1">
			<data offset="52" size="4" shape="1,1,1,1" element_type="f32"/>
			<output>
				<port id="0" precision="FP32">
					<dim>1</dim>
					<dim>1</dim>
					<dim>1</dim>
					<dim>1</dim>
				</port>
			</output>
		</layer>
		<layer id="28" name="3823382722791" type="Const" version="opset1">
			<data offset="56" size="4" shape="1,1,1,1" element_type="f32"/>
			<output>
				<port id="0" precision="FP32">
					<dim>1</dim>
					<dim>1</dim>
					<dim>1</dim>
					<dim>1</dim>
				</port>
			</output>
		</layer>
		<layer id="29" name="3824382822005" type="Const" version="opset1">
			<data offset="60" size="4" shape="1,1,1,1" element_type="f32"/>
			<output>
				<port id="0" precision="FP32">
					<dim>1</dim>
					<dim>1</dim>
					<dim>1</dim>
					<dim>1</dim>
				</port>
			</output>
		</layer>
		<layer id="30" name="3825382922434" type="Const" version="opset1">
			<data offset="56" size="4" shape="1,1,1,1" element_type="f32"/>
			<output>
				<port id="0" precision="FP32">
					<dim>1</dim>
					<dim>1</dim>
					<dim>1</dim>
					<dim>1</dim>
				</port>
			</output>
		</layer>
		<layer id="31" name="3826383022488" type="Const" version="opset1">
			<data offset="60" size="4" shape="1,1,1,1" element_type="f32"/>
			<output>
				<port id="0" precision="FP32">
					<dim>1</dim>
					<dim>1</dim>
					<dim>1</dim>
					<dim>1</dim>
				</port>
			</output>
		</layer>
		<layer id="32" name="4363436723628" type="Const" version="opset1">
			<data offset="64" size="4" shape="1,1,1,1" element_type="f32"/>
			<output>
				<port id="0" precision="FP32">
					<dim>1</dim>
					<dim>1</dim>
					<dim>1</dim>
					<dim>1</dim>
				</port>
			</output>
		</layer>
		<layer id="33" name="4364436824351" type="Const" version="opset1">
			<data offset="68" size="4" shape="1,1,1,1" element_type="f32"/>
			<output>
				<port id="0" precision="FP32">
					<dim>1</dim>
					<dim>1</dim>
					<dim>1</dim>
					<dim>1</dim>
				</port>
			</output>
		</layer>
		<layer id="34" name="4365436922953" type="Const" version="opset1">
			<data offset="64" size="4" shape="1,1,1,1" element_type="f32"/>
			<output>
				<port id="0" precision="FP32">
					<dim>1</dim>
					<dim>1</dim>
					<dim>1</dim>
					<dim>1</dim>
				</port>
			</output>
		</layer>
		<layer id="35" name="4366437022827" type="Const" version="opset1">
			<data offset="68" size="4" shape="1,1,1,1" element_type="f32"/>
			<output>
				<port id="0" precision="FP32">
					<dim>1</dim>
					<dim>1</dim>
					<dim>1</dim>
					<dim>1</dim>
				</port>
			</output>
		</layer>
		<layer id="36" name="3723372723343" type="Const" version="opset1">
			<data offset="72" size="4" shape="1,1,1,1" element_type="f32"/>
			<output>
				<port id="0" precision="FP32">
					<dim>1</dim>
					<dim>1</dim>
					<dim>1</dim>
					<dim>1</dim>
				</port>
			</output>
		</layer>
		<layer id="37" name="3724372823220" type="Const" version="opset1">
			<data offset="76" size="4" shape="1,1,1,1" element_type="f32"/>
			<output>
				<port id="0" precision="FP32">
					<dim>1</dim>
					<dim>1</dim>
					<dim>1</dim>
					<dim>1</dim>
				</port>
			</output>
		</layer>
		<layer id="38" name="3725372922656" type="Const" version="opset1">
			<data offset="72" size="4" shape="1,1,1,1" element_type="f32"/>
			<output>
				<port id="0" precision="FP32">
					<dim>1</dim>
					<dim>1</dim>
					<dim>1</dim>
					<dim>1</dim>
				</port>
			</output>
		</layer>
		<layer id="39" name="3726373022890" type="Const" version="opset1">
			<data offset="76" size="4" shape="1,1,1,1" element_type="f32"/>
			<output>
				<port id="0" precision="FP32">
					<dim>1</dim>
					<dim>1</dim>
					<dim>1</dim>
					<dim>1</dim>
				</port>
			</output>
		</layer>
		<layer id="40" name="5403540722062" type="Const" version="opset1">
			<data offset="80" size="4" shape="1,1,1,1" element_type="f32"/>
			<output>
				<port id="0" precision="FP32">
					<dim>1</dim>
					<dim>1</dim>
					<dim>1</dim>
					<dim>1</dim>
				</port>
			</output>
		</layer>
		<layer id="41" name="5404540824423" type="Const" version="opset1">
			<data offset="84" size="4" shape="1,1,1,1" element_type="f32"/>
			<output>
				<port id="0" precision="FP32">
					<dim>1</dim>
					<dim>1</dim>
					<dim>1</dim>
					<dim>1</dim>
				</port>
			</output>
		</layer>
		<layer id="42" name="5405540923748" type="Const" version="opset1">
			<data offset="80" size="4" shape="1,1,1,1" element_type="f32"/>
			<output>
				<port id="0" precision="FP32">
					<dim>1</dim>
					<dim>1</dim>
					<dim>1</dim>
					<dim>1</dim>
				</port>
			</output>
		</layer>
		<layer id="43" name="5406541022737" type="Const" version="opset1">
			<data offset="84" size="4" shape="1,1,1,1" element_type="f32"/>
			<output>
				<port id="0" precision="FP32">
					<dim>1</dim>
					<dim>1</dim>
					<dim>1</dim>
					<dim>1</dim>
				</port>
			</output>
		</layer>
		<layer id="44" name="5283528724435" type="Const" version="opset1">
			<data offset="88" size="4" shape="1,1,1,1" element_type="f32"/>
			<output>
				<port id="0" precision="FP32">
					<dim>1</dim>
					<dim>1</dim>
					<dim>1</dim>
					<dim>1</dim>
				</port>
			</output>
		</layer>
		<layer id="45" name="5284528824168" type="Const" version="opset1">
			<data offset="92" size="4" shape="1,1,1,1" element_type="f32"/>
			<output>
				<port id="0" precision="FP32">
					<dim>1</dim>
					<dim>1</dim>
					<dim>1</dim>
					<dim>1</dim>
				</port>
			</output>
		</layer>
		<layer id="46" name="5285528922431" type="Const" version="opset1">
			<data offset="88" size="4" shape="1,1,1,1" element_type="f32"/>
			<output>
				<port id="0" precision="FP32">
					<dim>1</dim>
					<dim>1</dim>
					<dim>1</dim>
					<dim>1</dim>
				</port>
			</output>
		</layer>
		<layer id="47" name="5286529022341" type="Const" version="opset1">
			<data offset="92" size="4" shape="1,1,1,1" element_type="f32"/>
			<output>
				<port id="0" precision="FP32">
					<dim>1</dim>
					<dim>1</dim>
					<dim>1</dim>
					<dim>1</dim>
				</port>
			</output>
		</layer>
		<layer id="48" name="7258726222386" type="Const" version="opset1">
			<data offset="96" size="4" shape="1,1,1,1" element_type="f32"/>
			<output>
				<port id="0" precision="FP32">
					<dim>1</dim>
					<dim>1</dim>
					<dim>1</dim>
					<dim>1</dim>
				</port>
			</output>
		</layer>
		<layer id="49" name="7259726322620" type="Const" version="opset1">
			<data offset="100" size="4" shape="1,1,1,1" element_type="f32"/>
			<output>
				<port id="0" precision="FP32">
					<dim>1</dim>
					<dim>1</dim>
					<dim>1</dim>
					<dim>1</dim>
				</port>
			</output>
		</layer>
		<layer id="50" name="7260726424291" type="Const" version="opset1">
			<data offset="96" size="4" shape="1,1,1,1" element_type="f32"/>
			<output>
				<port id="0" precision="FP32">
					<dim>1</dim>
					<dim>1</dim>
					<dim>1</dim>
					<dim>1</dim>
				</port>
			</output>
		</layer>
		<layer id="51" name="7261726522923" type="Const" version="opset1">
			<data offset="100" size="4" shape="1,1,1,1" element_type="f32"/>
			<output>
				<port id="0" precision="FP32">
					<dim>1</dim>
					<dim>1</dim>
					<dim>1</dim>
					<dim>1</dim>
				</port>
			</output>
		</layer>
		<layer id="52" name="5363536724582" type="Const" version="opset1">
			<data offset="104" size="4" shape="1,1,1,1" element_type="f32"/>
			<output>
				<port id="0" precision="FP32">
					<dim>1</dim>
					<dim>1</dim>
					<dim>1</dim>
					<dim>1</dim>
				</port>
			</output>
		</layer>
		<layer id="53" name="5364536823322" type="Const" version="opset1">
			<data offset="108" size="4" shape="1,1,1,1" element_type="f32"/>
			<output>
				<port id="0" precision="FP32">
					<dim>1</dim>
					<dim>1</dim>
					<dim>1</dim>
					<dim>1</dim>
				</port>
			</output>
		</layer>
		<layer id="54" name="5365536924762" type="Const" version="opset1">
			<data offset="104" size="4" shape="1,1,1,1" element_type="f32"/>
			<output>
				<port id="0" precision="FP32">
					<dim>1</dim>
					<dim>1</dim>
					<dim>1</dim>
					<dim>1</dim>
				</port>
			</output>
		</layer>
		<layer id="55" name="5366537022899" type="Const" version="opset1">
			<data offset="108" size="4" shape="1,1,1,1" element_type="f32"/>
			<output>
				<port id="0" precision="FP32">
					<dim>1</dim>
					<dim>1</dim>
					<dim>1</dim>
					<dim>1</dim>
				</port>
			</output>
		</layer>
		<layer id="56" name="7088709221957" type="Const" version="opset1">
			<data offset="112" size="4" shape="1,1,1,1" element_type="f32"/>
			<output>
				<port id="0" precision="FP32">
					<dim>1</dim>
					<dim>1</dim>
					<dim>1</dim>
					<dim>1</dim>
				</port>
			</output>
		</layer>
		<layer id="57" name="7089709322749" type="Const" version="opset1">
			<data offset="116" size="4" shape="1,1,1,1" element_type="f32"/>
			<output>
				<port id="0" precision="FP32">
					<dim>1</dim>
					<dim>1</dim>
					<dim>1</dim>
					<dim>1</dim>
				</port>
			</output>
		</layer>
		<layer id="58" name="7090709422617" type="Const" version="opset1">
			<data offset="112" size="4" shape="1,1,1,1" element_type="f32"/>
			<output>
				<port id="0" precision="FP32">
					<dim>1</dim>
					<dim>1</dim>
					<dim>1</dim>
					<dim>1</dim>
				</port>
			</output>
		</layer>
		<layer id="59" name="7091709523373" type="Const" version="opset1">
			<data offset="116" size="4" shape="1,1,1,1" element_type="f32"/>
			<output>
				<port id="0" precision="FP32">
					<dim>1</dim>
					<dim>1</dim>
					<dim>1</dim>
					<dim>1</dim>
				</port>
			</output>
		</layer>
		<layer id="60" name="4853485723574" type="Const" version="opset1">
			<data offset="120" size="4" shape="1,1,1,1" element_type="f32"/>
			<output>
				<port id="0" precision="FP32">
					<dim>1</dim>
					<dim>1</dim>
					<dim>1</dim>
					<dim>1</dim>
				</port>
			</output>
		</layer>
		<layer id="61" name="4854485822326" type="Const" version="opset1">
			<data offset="124" size="4" shape="1,1,1,1" element_type="f32"/>
			<output>
				<port id="0" precision="FP32">
					<dim>1</dim>
					<dim>1</dim>
					<dim>1</dim>
					<dim>1</dim>
				</port>
			</output>
		</layer>
		<layer id="62" name="4855485922182" type="Const" version="opset1">
			<data offset="120" size="4" shape="1,1,1,1" element_type="f32"/>
			<output>
				<port id="0" precision="FP32">
					<dim>1</dim>
					<dim>1</dim>
					<dim>1</dim>
					<dim>1</dim>
				</port>
			</output>
		</layer>
		<layer id="63" name="4856486022983" type="Const" version="opset1">
			<data offset="124" size="4" shape="1,1,1,1" element_type="f32"/>
			<output>
				<port id="0" precision="FP32">
					<dim>1</dim>
					<dim>1</dim>
					<dim>1</dim>
					<dim>1</dim>
				</port>
			</output>
		</layer>
		<layer id="64" name="4593459724369" type="Const" version="opset1">
			<data offset="128" size="4" shape="1,1,1,1" element_type="f32"/>
			<output>
				<port id="0" precision="FP32">
					<dim>1</dim>
					<dim>1</dim>
					<dim>1</dim>
					<dim>1</dim>
				</port>
			</output>
		</layer>
		<layer id="65" name="4594459822143" type="Const" version="opset1">
			<data offset="132" size="4" shape="1,1,1,1" element_type="f32"/>
			<output>
				<port id="0" precision="FP32">
					<dim>1</dim>
					<dim>1</dim>
					<dim>1</dim>
					<dim>1</dim>
				</port>
			</output>
		</layer>
		<layer id="66" name="4595459921864" type="Const" version="opset1">
			<data offset="128" size="4" shape="1,1,1,1" element_type="f32"/>
			<output>
				<port id="0" precision="FP32">
					<dim>1</dim>
					<dim>1</dim>
					<dim>1</dim>
					<dim>1</dim>
				</port>
			</output>
		</layer>
		<layer id="67" name="4596460023958" type="Const" version="opset1">
			<data offset="132" size="4" shape="1,1,1,1" element_type="f32"/>
			<output>
				<port id="0" precision="FP32">
					<dim>1</dim>
					<dim>1</dim>
					<dim>1</dim>
					<dim>1</dim>
				</port>
			</output>
		</layer>
		<layer id="68" name="4463446722713" type="Const" version="opset1">
			<data offset="136" size="4" shape="1,1,1,1" element_type="f32"/>
			<output>
				<port id="0" precision="FP32">
					<dim>1</dim>
					<dim>1</dim>
					<dim>1</dim>
					<dim>1</dim>
				</port>
			</output>
		</layer>
		<layer id="69" name="4464446824009" type="Const" version="opset1">
			<data offset="140" size="4" shape="1,1,1,1" element_type="f32"/>
			<output>
				<port id="0" precision="FP32">
					<dim>1</dim>
					<dim>1</dim>
					<dim>1</dim>
					<dim>1</dim>
				</port>
			</output>
		</layer>
		<layer id="70" name="4465446923676" type="Const" version="opset1">
			<data offset="136" size="4" shape="1,1,1,1" element_type="f32"/>
			<output>
				<port id="0" precision="FP32">
					<dim>1</dim>
					<dim>1</dim>
					<dim>1</dim>
					<dim>1</dim>
				</port>
			</output>
		</layer>
		<layer id="71" name="4466447024525" type="Const" version="opset1">
			<data offset="140" size="4" shape="1,1,1,1" element_type="f32"/>
			<output>
				<port id="0" precision="FP32">
					<dim>1</dim>
					<dim>1</dim>
					<dim>1</dim>
					<dim>1</dim>
				</port>
			</output>
		</layer>
		<layer id="72" name="5203520724858" type="Const" version="opset1">
			<data offset="144" size="4" shape="1,1,1,1" element_type="f32"/>
			<output>
				<port id="0" precision="FP32">
					<dim>1</dim>
					<dim>1</dim>
					<dim>1</dim>
					<dim>1</dim>
				</port>
			</output>
		</layer>
		<layer id="73" name="5204520824342" type="Const" version="opset1">
			<data offset="148" size="4" shape="1,1,1,1" element_type="f32"/>
			<output>
				<port id="0" precision="FP32">
					<dim>1</dim>
					<dim>1</dim>
					<dim>1</dim>
					<dim>1</dim>
				</port>
			</output>
		</layer>
		<layer id="74" name="5205520922839" type="Const" version="opset1">
			<data offset="144" size="4" shape="1,1,1,1" element_type="f32"/>
			<output>
				<port id="0" precision="FP32">
					<dim>1</dim>
					<dim>1</dim>
					<dim>1</dim>
					<dim>1</dim>
				</port>
			</output>
		</layer>
		<layer id="75" name="5206521024579" type="Const" version="opset1">
			<data offset="148" size="4" shape="1,1,1,1" element_type="f32"/>
			<output>
				<port id="0" precision="FP32">
					<dim>1</dim>
					<dim>1</dim>
					<dim>1</dim>
					<dim>1</dim>
				</port>
			</output>
		</layer>
		<layer id="76" name="4123412722335" type="Const" version="opset1">
			<data offset="152" size="4" shape="1,1,1,1" element_type="f32"/>
			<output>
				<port id="0" precision="FP32">
					<dim>1</dim>
					<dim>1</dim>
					<dim>1</dim>
					<dim>1</dim>
				</port>
			</output>
		</layer>
		<layer id="77" name="4124412823544" type="Const" version="opset1">
			<data offset="156" size="4" shape="1,1,1,1" element_type="f32"/>
			<output>
				<port id="0" precision="FP32">
					<dim>1</dim>
					<dim>1</dim>
					<dim>1</dim>
					<dim>1</dim>
				</port>
			</output>
		</layer>
		<layer id="78" name="4125412923439" type="Const" version="opset1">
			<data offset="152" size="4" shape="1,1,1,1" element_type="f32"/>
			<output>
				<port id="0" precision="FP32">
					<dim>1</dim>
					<dim>1</dim>
					<dim>1</dim>
					<dim>1</dim>
				</port>
			</output>
		</layer>
		<layer id="79" name="4126413024324" type="Const" version="opset1">
			<data offset="156" size="4" shape="1,1,1,1" element_type="f32"/>
			<output>
				<port id="0" precision="FP32">
					<dim>1</dim>
					<dim>1</dim>
					<dim>1</dim>
					<dim>1</dim>
				</port>
			</output>
		</layer>
		<layer id="80" name="5043504723547" type="Const" version="opset1">
			<data offset="160" size="4" shape="1,1,1,1" element_type="f32"/>
			<output>
				<port id="0" precision="FP32">
					<dim>1</dim>
					<dim>1</dim>
					<dim>1</dim>
					<dim>1</dim>
				</port>
			</output>
		</layer>
		<layer id="81" name="5044504822701" type="Const" version="opset1">
			<data offset="164" size="4" shape="1,1,1,1" element_type="f32"/>
			<output>
				<port id="0" precision="FP32">
					<dim>1</dim>
					<dim>1</dim>
					<dim>1</dim>
					<dim>1</dim>
				</port>
			</output>
		</layer>
		<layer id="82" name="5045504924666" type="Const" version="opset1">
			<data offset="160" size="4" shape="1,1,1,1" element_type="f32"/>
			<output>
				<port id="0" precision="FP32">
					<dim>1</dim>
					<dim>1</dim>
					<dim>1</dim>
					<dim>1</dim>
				</port>
			</output>
		</layer>
		<layer id="83" name="5046505022785" type="Const" version="opset1">
			<data offset="164" size="4" shape="1,1,1,1" element_type="f32"/>
			<output>
				<port id="0" precision="FP32">
					<dim>1</dim>
					<dim>1</dim>
					<dim>1</dim>
					<dim>1</dim>
				</port>
			</output>
		</layer>
		<layer id="84" name="4503450724165" type="Const" version="opset1">
			<data offset="168" size="4" shape="1,1,1,1" element_type="f32"/>
			<output>
				<port id="0" precision="FP32">
					<dim>1</dim>
					<dim>1</dim>
					<dim>1</dim>
					<dim>1</dim>
				</port>
			</output>
		</layer>
		<layer id="85" name="4504450822578" type="Const" version="opset1">
			<data offset="172" size="4" shape="1,1,1,1" element_type="f32"/>
			<output>
				<port id="0" precision="FP32">
					<dim>1</dim>
					<dim>1</dim>
					<dim>1</dim>
					<dim>1</dim>
				</port>
			</output>
		</layer>
		<layer id="86" name="4505450923817" type="Const" version="opset1">
			<data offset="168" size="4" shape="1,1,1,1" element_type="f32"/>
			<output>
				<port id="0" precision="FP32">
					<dim>1</dim>
					<dim>1</dim>
					<dim>1</dim>
					<dim>1</dim>
				</port>
			</output>
		</layer>
		<layer id="87" name="4506451024195" type="Const" version="opset1">
			<data offset="172" size="4" shape="1,1,1,1" element_type="f32"/>
			<output>
				<port id="0" precision="FP32">
					<dim>1</dim>
					<dim>1</dim>
					<dim>1</dim>
					<dim>1</dim>
				</port>
			</output>
		</layer>
		<layer id="88" name="4973497722641" type="Const" version="opset1">
			<data offset="176" size="4" shape="1,1,1,1" element_type="f32"/>
			<output>
				<port id="0" precision="FP32">
					<dim>1</dim>
					<dim>1</dim>
					<dim>1</dim>
					<dim>1</dim>
				</port>
			</output>
		</layer>
		<layer id="89" name="4974497822854" type="Const" version="opset1">
			<data offset="180" size="4" shape="1,1,1,1" element_type="f32"/>
			<output>
				<port id="0" precision="FP32">
					<dim>1</dim>
					<dim>1</dim>
					<dim>1</dim>
					<dim>1</dim>
				</port>
			</output>
		</layer>
		<layer id="90" name="4975497923820" type="Const" version="opset1">
			<data offset="176" size="4" shape="1,1,1,1" element_type="f32"/>
			<output>
				<port id="0" precision="FP32">
					<dim>1</dim>
					<dim>1</dim>
					<dim>1</dim>
					<dim>1</dim>
				</port>
			</output>
		</layer>
		<layer id="91" name="4976498024069" type="Const" version="opset1">
			<data offset="180" size="4" shape="1,1,1,1" element_type="f32"/>
			<output>
				<port id="0" precision="FP32">
					<dim>1</dim>
					<dim>1</dim>
					<dim>1</dim>
					<dim>1</dim>
				</port>
			</output>
		</layer>
		<layer id="92" name="4543454723073" type="Const" version="opset1">
			<data offset="184" size="4" shape="1,1,1,1" element_type="f32"/>
			<output>
				<port id="0" precision="FP32">
					<dim>1</dim>
					<dim>1</dim>
					<dim>1</dim>
					<dim>1</dim>
				</port>
			</output>
		</layer>
		<layer id="93" name="4544454824243" type="Const" version="opset1">
			<data offset="188" size="4" shape="1,1,1,1" element_type="f32"/>
			<output>
				<port id="0" precision="FP32">
					<dim>1</dim>
					<dim>1</dim>
					<dim>1</dim>
					<dim>1</dim>
				</port>
			</output>
		</layer>
		<layer id="94" name="4545454922590" type="Const" version="opset1">
			<data offset="184" size="4" shape="1,1,1,1" element_type="f32"/>
			<output>
				<port id="0" precision="FP32">
					<dim>1</dim>
					<dim>1</dim>
					<dim>1</dim>
					<dim>1</dim>
				</port>
			</output>
		</layer>
		<layer id="95" name="4546455023436" type="Const" version="opset1">
			<data offset="188" size="4" shape="1,1,1,1" element_type="f32"/>
			<output>
				<port id="0" precision="FP32">
					<dim>1</dim>
					<dim>1</dim>
					<dim>1</dim>
					<dim>1</dim>
				</port>
			</output>
		</layer>
		<layer id="96" name="3423342724204" type="Const" version="opset1">
			<data offset="192" size="4" shape="1,1,1,1" element_type="f32"/>
			<output>
				<port id="0" precision="FP32">
					<dim>1</dim>
					<dim>1</dim>
					<dim>1</dim>
					<dim>1</dim>
				</port>
			</output>
		</layer>
		<layer id="97" name="3424342823706" type="Const" version="opset1">
			<data offset="196" size="4" shape="1,1,1,1" element_type="f32"/>
			<output>
				<port id="0" precision="FP32">
					<dim>1</dim>
					<dim>1</dim>
					<dim>1</dim>
					<dim>1</dim>
				</port>
			</output>
		</layer>
		<layer id="98" name="3425342924669" type="Const" version="opset1">
			<data offset="192" size="4" shape="1,1,1,1" element_type="f32"/>
			<output>
				<port id="0" precision="FP32">
					<dim>1</dim>
					<dim>1</dim>
					<dim>1</dim>
					<dim>1</dim>
				</port>
			</output>
		</layer>
		<layer id="99" name="3426343022857" type="Const" version="opset1">
			<data offset="196" size="4" shape="1,1,1,1" element_type="f32"/>
			<output>
				<port id="0" precision="FP32">
					<dim>1</dim>
					<dim>1</dim>
					<dim>1</dim>
					<dim>1</dim>
				</port>
			</output>
		</layer>
		<layer id="100" name="3203320723040" type="Const" version="opset1">
			<data offset="200" size="4" shape="1,1,1,1" element_type="f32"/>
			<output>
				<port id="0" precision="FP32">
					<dim>1</dim>
					<dim>1</dim>
					<dim>1</dim>
					<dim>1</dim>
				</port>
			</output>
		</layer>
		<layer id="101" name="3204320822683" type="Const" version="opset1">
			<data offset="204" size="4" shape="1,1,1,1" element_type="f32"/>
			<output>
				<port id="0" precision="FP32">
					<dim>1</dim>
					<dim>1</dim>
					<dim>1</dim>
					<dim>1</dim>
				</port>
			</output>
		</layer>
		<layer id="102" name="3205320923379" type="Const" version="opset1">
			<data offset="200" size="4" shape="1,1,1,1" element_type="f32"/>
			<output>
				<port id="0" precision="FP32">
					<dim>1</dim>
					<dim>1</dim>
					<dim>1</dim>
					<dim>1</dim>
				</port>
			</output>
		</layer>
		<layer id="103" name="3206321022611" type="Const" version="opset1">
			<data offset="204" size="4" shape="1,1,1,1" element_type="f32"/>
			<output>
				<port id="0" precision="FP32">
					<dim>1</dim>
					<dim>1</dim>
					<dim>1</dim>
					<dim>1</dim>
				</port>
			</output>
		</layer>
		<layer id="104" name="7068707222296" type="Const" version="opset1">
			<data offset="208" size="4" shape="1,1,1,1" element_type="f32"/>
			<output>
				<port id="0" precision="FP32">
					<dim>1</dim>
					<dim>1</dim>
					<dim>1</dim>
					<dim>1</dim>
				</port>
			</output>
		</layer>
		<layer id="105" name="7069707322746" type="Const" version="opset1">
			<data offset="212" size="4" shape="1,1,1,1" element_type="f32"/>
			<output>
				<port id="0" precision="FP32">
					<dim>1</dim>
					<dim>1</dim>
					<dim>1</dim>
					<dim>1</dim>
				</port>
			</output>
		</layer>
		<layer id="106" name="7070707423490" type="Const" version="opset1">
			<data offset="208" size="4" shape="1,1,1,1" element_type="f32"/>
			<output>
				<port id="0" precision="FP32">
					<dim>1</dim>
					<dim>1</dim>
					<dim>1</dim>
					<dim>1</dim>
				</port>
			</output>
		</layer>
		<layer id="107" name="7071707522767" type="Const" version="opset1">
			<data offset="212" size="4" shape="1,1,1,1" element_type="f32"/>
			<output>
				<port id="0" precision="FP32">
					<dim>1</dim>
					<dim>1</dim>
					<dim>1</dim>
					<dim>1</dim>
				</port>
			</output>
		</layer>
		<layer id="108" name="3263326723682" type="Const" version="opset1">
			<data offset="216" size="4" shape="1,1,1,1" element_type="f32"/>
			<output>
				<port id="0" precision="FP32">
					<dim>1</dim>
					<dim>1</dim>
					<dim>1</dim>
					<dim>1</dim>
				</port>
			</output>
		</layer>
		<layer id="109" name="3264326824717" type="Const" version="opset1">
			<data offset="220" size="4" shape="1,1,1,1" element_type="f32"/>
			<output>
				<port id="0" precision="FP32">
					<dim>1</dim>
					<dim>1</dim>
					<dim>1</dim>
					<dim>1</dim>
				</port>
			</output>
		</layer>
		<layer id="110" name="3265326924201" type="Const" version="opset1">
			<data offset="216" size="4" shape="1,1,1,1" element_type="f32"/>
			<output>
				<port id="0" precision="FP32">
					<dim>1</dim>
					<dim>1</dim>
					<dim>1</dim>
					<dim>1</dim>
				</port>
			</output>
		</layer>
		<layer id="111" name="3266327024696" type="Const" version="opset1">
			<data offset="220" size="4" shape="1,1,1,1" element_type="f32"/>
			<output>
				<port id="0" precision="FP32">
					<dim>1</dim>
					<dim>1</dim>
					<dim>1</dim>
					<dim>1</dim>
				</port>
			</output>
		</layer>
		<layer id="112" name="3443344722812" type="Const" version="opset1">
			<data offset="224" size="4" shape="1,1,1,1" element_type="f32"/>
			<output>
				<port id="0" precision="FP32">
					<dim>1</dim>
					<dim>1</dim>
					<dim>1</dim>
					<dim>1</dim>
				</port>
			</output>
		</layer>
		<layer id="113" name="3444344824066" type="Const" version="opset1">
			<data offset="228" size="4" shape="1,1,1,1" element_type="f32"/>
			<output>
				<port id="0" precision="FP32">
					<dim>1</dim>
					<dim>1</dim>
					<dim>1</dim>
					<dim>1</dim>
				</port>
			</output>
		</layer>
		<layer id="114" name="3445344922308" type="Const" version="opset1">
			<data offset="224" size="4" shape="1,1,1,1" element_type="f32"/>
			<output>
				<port id="0" precision="FP32">
					<dim>1</dim>
					<dim>1</dim>
					<dim>1</dim>
					<dim>1</dim>
				</port>
			</output>
		</layer>
		<layer id="115" name="3446345024087" type="Const" version="opset1">
			<data offset="228" size="4" shape="1,1,1,1" element_type="f32"/>
			<output>
				<port id="0" precision="FP32">
					<dim>1</dim>
					<dim>1</dim>
					<dim>1</dim>
					<dim>1</dim>
				</port>
			</output>
		</layer>
		<layer id="116" name="3663366724609" type="Const" version="opset1">
			<data offset="232" size="4" shape="1,1,1,1" element_type="f32"/>
			<output>
				<port id="0" precision="FP32">
					<dim>1</dim>
					<dim>1</dim>
					<dim>1</dim>
					<dim>1</dim>
				</port>
			</output>
		</layer>
		<layer id="117" name="3664366822809" type="Const" version="opset1">
			<data offset="236" size="4" shape="1,1,1,1" element_type="f32"/>
			<output>
				<port id="0" precision="FP32">
					<dim>1</dim>
					<dim>1</dim>
					<dim>1</dim>
					<dim>1</dim>
				</port>
			</output>
		</layer>
		<layer id="118" name="3665366924180" type="Const" version="opset1">
			<data offset="232" size="4" shape="1,1,1,1" element_type="f32"/>
			<output>
				<port id="0" precision="FP32">
					<dim>1</dim>
					<dim>1</dim>
					<dim>1</dim>
					<dim>1</dim>
				</port>
			</output>
		</layer>
		<layer id="119" name="3666367024345" type="Const" version="opset1">
			<data offset="236" size="4" shape="1,1,1,1" element_type="f32"/>
			<output>
				<port id="0" precision="FP32">
					<dim>1</dim>
					<dim>1</dim>
					<dim>1</dim>
					<dim>1</dim>
				</port>
			</output>
		</layer>
		<layer id="120" name="4733473724402" type="Const" version="opset1">
			<data offset="240" size="4" shape="1,1,1,1" element_type="f32"/>
			<output>
				<port id="0" precision="FP32">
					<dim>1</dim>
					<dim>1</dim>
					<dim>1</dim>
					<dim>1</dim>
				</port>
			</output>
		</layer>
		<layer id="121" name="4734473824846" type="Const" version="opset1">
			<data offset="244" size="4" shape="1,1,1,1" element_type="f32"/>
			<output>
				<port id="0" precision="FP32">
					<dim>1</dim>
					<dim>1</dim>
					<dim>1</dim>
					<dim>1</dim>
				</port>
			</output>
		</layer>
		<layer id="122" name="4735473922095" type="Const" version="opset1">
			<data offset="240" size="4" shape="1,1,1,1" element_type="f32"/>
			<output>
				<port id="0" precision="FP32">
					<dim>1</dim>
					<dim>1</dim>
					<dim>1</dim>
					<dim>1</dim>
				</port>
			</output>
		</layer>
		<layer id="123" name="4736474022011" type="Const" version="opset1">
			<data offset="244" size="4" shape="1,1,1,1" element_type="f32"/>
			<output>
				<port id="0" precision="FP32">
					<dim>1</dim>
					<dim>1</dim>
					<dim>1</dim>
					<dim>1</dim>
				</port>
			</output>
		</layer>
		<layer id="124" name="4773477723109" type="Const" version="opset1">
			<data offset="200" size="4" shape="1,1,1,1" element_type="f32"/>
			<output>
				<port id="0" precision="FP32">
					<dim>1</dim>
					<dim>1</dim>
					<dim>1</dim>
					<dim>1</dim>
				</port>
			</output>
		</layer>
		<layer id="125" name="4774477824771" type="Const" version="opset1">
			<data offset="204" size="4" shape="1,1,1,1" element_type="f32"/>
			<output>
				<port id="0" precision="FP32">
					<dim>1</dim>
					<dim>1</dim>
					<dim>1</dim>
					<dim>1</dim>
				</port>
			</output>
		</layer>
		<layer id="126" name="4775477924129" type="Const" version="opset1">
			<data offset="200" size="4" shape="1,1,1,1" element_type="f32"/>
			<output>
				<port id="0" precision="FP32">
					<dim>1</dim>
					<dim>1</dim>
					<dim>1</dim>
					<dim>1</dim>
				</port>
			</output>
		</layer>
		<layer id="127" name="4776478023418" type="Const" version="opset1">
			<data offset="204" size="4" shape="1,1,1,1" element_type="f32"/>
			<output>
				<port id="0" precision="FP32">
					<dim>1</dim>
					<dim>1</dim>
					<dim>1</dim>
					<dim>1</dim>
				</port>
			</output>
		</layer>
		<layer id="128" name="7128713222506" type="Const" version="opset1">
			<data offset="248" size="4" shape="1,1,1,1" element_type="f32"/>
			<output>
				<port id="0" precision="FP32">
					<dim>1</dim>
					<dim>1</dim>
					<dim>1</dim>
					<dim>1</dim>
				</port>
			</output>
		</layer>
		<layer id="129" name="7129713323619" type="Const" version="opset1">
			<data offset="252" size="4" shape="1,1,1,1" element_type="f32"/>
			<output>
				<port id="0" precision="FP32">
					<dim>1</dim>
					<dim>1</dim>
					<dim>1</dim>
					<dim>1</dim>
				</port>
			</output>
		</layer>
		<layer id="130" name="7130713423721" type="Const" version="opset1">
			<data offset="248" size="4" shape="1,1,1,1" element_type="f32"/>
			<output>
				<port id="0" precision="FP32">
					<dim>1</dim>
					<dim>1</dim>
					<dim>1</dim>
					<dim>1</dim>
				</port>
			</output>
		</layer>
		<layer id="131" name="7131713522053" type="Const" version="opset1">
			<data offset="252" size="4" shape="1,1,1,1" element_type="f32"/>
			<output>
				<port id="0" precision="FP32">
					<dim>1</dim>
					<dim>1</dim>
					<dim>1</dim>
					<dim>1</dim>
				</port>
			</output>
		</layer>
		<layer id="132" name="3643364721822" type="Const" version="opset1">
			<data offset="256" size="4" shape="1,1,1,1" element_type="f32"/>
			<output>
				<port id="0" precision="FP32">
					<dim>1</dim>
					<dim>1</dim>
					<dim>1</dim>
					<dim>1</dim>
				</port>
			</output>
		</layer>
		<layer id="133" name="3644364822818" type="Const" version="opset1">
			<data offset="260" size="4" shape="1,1,1,1" element_type="f32"/>
			<output>
				<port id="0" precision="FP32">
					<dim>1</dim>
					<dim>1</dim>
					<dim>1</dim>
					<dim>1</dim>
				</port>
			</output>
		</layer>
		<layer id="134" name="3645364921870" type="Const" version="opset1">
			<data offset="256" size="4" shape="1,1,1,1" element_type="f32"/>
			<output>
				<port id="0" precision="FP32">
					<dim>1</dim>
					<dim>1</dim>
					<dim>1</dim>
					<dim>1</dim>
				</port>
			</output>
		</layer>
		<layer id="135" name="3646365023385" type="Const" version="opset1">
			<data offset="260" size="4" shape="1,1,1,1" element_type="f32"/>
			<output>
				<port id="0" precision="FP32">
					<dim>1</dim>
					<dim>1</dim>
					<dim>1</dim>
					<dim>1</dim>
				</port>
			</output>
		</layer>
		<layer id="136" name="5243524724399" type="Const" version="opset1">
			<data offset="200" size="4" shape="1,1,1,1" element_type="f32"/>
			<output>
				<port id="0" precision="FP32">
					<dim>1</dim>
					<dim>1</dim>
					<dim>1</dim>
					<dim>1</dim>
				</port>
			</output>
		</layer>
		<layer id="137" name="5244524822191" type="Const" version="opset1">
			<data offset="212" size="4" shape="1,1,1,1" element_type="f32"/>
			<output>
				<port id="0" precision="FP32">
					<dim>1</dim>
					<dim>1</dim>
					<dim>1</dim>
					<dim>1</dim>
				</port>
			</output>
		</layer>
		<layer id="138" name="5245524923331" type="Const" version="opset1">
			<data offset="200" size="4" shape="1,1,1,1" element_type="f32"/>
			<output>
				<port id="0" precision="FP32">
					<dim>1</dim>
					<dim>1</dim>
					<dim>1</dim>
					<dim>1</dim>
				</port>
			</output>
		</layer>
		<layer id="139" name="5246525023085" type="Const" version="opset1">
			<data offset="212" size="4" shape="1,1,1,1" element_type="f32"/>
			<output>
				<port id="0" precision="FP32">
					<dim>1</dim>
					<dim>1</dim>
					<dim>1</dim>
					<dim>1</dim>
				</port>
			</output>
		</layer>
		<layer id="140" name="5263526723412" type="Const" version="opset1">
			<data offset="264" size="4" shape="1,1,1,1" element_type="f32"/>
			<output>
				<port id="0" precision="FP32">
					<dim>1</dim>
					<dim>1</dim>
					<dim>1</dim>
					<dim>1</dim>
				</port>
			</output>
		</layer>
		<layer id="141" name="5264526823442" type="Const" version="opset1">
			<data offset="268" size="4" shape="1,1,1,1" element_type="f32"/>
			<output>
				<port id="0" precision="FP32">
					<dim>1</dim>
					<dim>1</dim>
					<dim>1</dim>
					<dim>1</dim>
				</port>
			</output>
		</layer>
		<layer id="142" name="5265526922548" type="Const" version="opset1">
			<data offset="264" size="4" shape="1,1,1,1" element_type="f32"/>
			<output>
				<port id="0" precision="FP32">
					<dim>1</dim>
					<dim>1</dim>
					<dim>1</dim>
					<dim>1</dim>
				</port>
			</output>
		</layer>
		<layer id="143" name="5266527024153" type="Const" version="opset1">
			<data offset="268" size="4" shape="1,1,1,1" element_type="f32"/>
			<output>
				<port id="0" precision="FP32">
					<dim>1</dim>
					<dim>1</dim>
					<dim>1</dim>
					<dim>1</dim>
				</port>
			</output>
		</layer>
		<layer id="144" name="4793479723898" type="Const" version="opset1">
			<data offset="200" size="4" shape="1,1,1,1" element_type="f32"/>
			<output>
				<port id="0" precision="FP32">
					<dim>1</dim>
					<dim>1</dim>
					<dim>1</dim>
					<dim>1</dim>
				</port>
			</output>
		</layer>
		<layer id="145" name="4794479822632" type="Const" version="opset1">
			<data offset="272" size="4" shape="1,1,1,1" element_type="f32"/>
			<output>
				<port id="0" precision="FP32">
					<dim>1</dim>
					<dim>1</dim>
					<dim>1</dim>
					<dim>1</dim>
				</port>
			</output>
		</layer>
		<layer id="146" name="4795479923064" type="Const" version="opset1">
			<data offset="200" size="4" shape="1,1,1,1" element_type="f32"/>
			<output>
				<port id="0" precision="FP32">
					<dim>1</dim>
					<dim>1</dim>
					<dim>1</dim>
					<dim>1</dim>
				</port>
			</output>
		</layer>
		<layer id="147" name="4796480023868" type="Const" version="opset1">
			<data offset="272" size="4" shape="1,1,1,1" element_type="f32"/>
			<output>
				<port id="0" precision="FP32">
					<dim>1</dim>
					<dim>1</dim>
					<dim>1</dim>
					<dim>1</dim>
				</port>
			</output>
		</layer>
		<layer id="148" name="7038704222815" type="Const" version="opset1">
			<data offset="276" size="4" shape="1,1,1,1" element_type="f32"/>
			<output>
				<port id="0" precision="FP32">
					<dim>1</dim>
					<dim>1</dim>
					<dim>1</dim>
					<dim>1</dim>
				</port>
			</output>
		</layer>
		<layer id="149" name="7039704323724" type="Const" version="opset1">
			<data offset="280" size="4" shape="1,1,1,1" element_type="f32"/>
			<output>
				<port id="0" precision="FP32">
					<dim>1</dim>
					<dim>1</dim>
					<dim>1</dim>
					<dim>1</dim>
				</port>
			</output>
		</layer>
		<layer id="150" name="7040704422650" type="Const" version="opset1">
			<data offset="276" size="4" shape="1,1,1,1" element_type="f32"/>
			<output>
				<port id="0" precision="FP32">
					<dim>1</dim>
					<dim>1</dim>
					<dim>1</dim>
					<dim>1</dim>
				</port>
			</output>
		</layer>
		<layer id="151" name="7041704523157" type="Const" version="opset1">
			<data offset="280" size="4" shape="1,1,1,1" element_type="f32"/>
			<output>
				<port id="0" precision="FP32">
					<dim>1</dim>
					<dim>1</dim>
					<dim>1</dim>
					<dim>1</dim>
				</port>
			</output>
		</layer>
		<layer id="153" name="image_input/Transpose([0 3 1 2])/fq_input_0" type="FakeQuantize" version="opset1">
			<data levels="256" auto_broadcast="numpy"/>
			<input>
				<port id="0">
					<dim>1</dim>
					<dim>608</dim>
					<dim>608</dim>
					<dim>3</dim>
				</port>
				<port id="1">
					<dim>1</dim>
					<dim>1</dim>
					<dim>1</dim>
					<dim>1</dim>
				</port>
				<port id="2">
					<dim>1</dim>
					<dim>1</dim>
					<dim>1</dim>
					<dim>1</dim>
				</port>
				<port id="3">
					<dim>1</dim>
					<dim>1</dim>
					<dim>1</dim>
					<dim>1</dim>
				</port>
				<port id="4">
					<dim>1</dim>
					<dim>1</dim>
					<dim>1</dim>
					<dim>1</dim>
				</port>
			</input>
			<output>
				<port id="5" precision="FP32">
					<dim>1</dim>
					<dim>608</dim>
					<dim>608</dim>
					<dim>3</dim>
				</port>
			</output>
		</layer>
		<layer id="154" name="image_input/Transpose([0 3 1 2])/value2785436801935" type="Const" version="opset1">
			<data offset="284" size="32" shape="4" element_type="i64"/>
			<rt_info>
				<attribute name="fused_names" version="0" value="image_input/Transpose([0 3 1 2])/value2785436801"/>
			</rt_info>
			<output>
				<port id="0" precision="I64">
					<dim>4</dim>
				</port>
			</output>
		</layer>
		<layer id="155" name="image_input/Transpose([0 3 1 2])" type="Transpose" version="opset1">
			<rt_info>
				<attribute name="fused_names" version="0" value="image_input/Transpose([0 3 1 2])"/>
			</rt_info>
			<input>
				<port id="0">
					<dim>1</dim>
					<dim>608</dim>
					<dim>608</dim>
					<dim>3</dim>
				</port>
				<port id="1">
					<dim>4</dim>
				</port>
			</input>
			<output>
				<port id="2" precision="FP32">
					<dim>1</dim>
					<dim>3</dim>
					<dim>608</dim>
					<dim>608</dim>
				</port>
			</output>
		</layer>
		<layer id="156" name="image_input/scale_copy93812466/restored_convert/quantized1552724744" type="Const" version="opset1">
			<data offset="316" size="864" shape="32,3,3,3" element_type="i8"/>
			<output>
				<port id="0" precision="I8">
					<dim>32</dim>
					<dim>3</dim>
					<dim>3</dim>
					<dim>3</dim>
				</port>
			</output>
		</layer>
		<layer id="157" name="image_input/scale_copy93812466/restored_convert/quantized/to_f32" type="Convert" version="opset1">
			<data destination_type="f32"/>
			<input>
				<port id="0">
					<dim>32</dim>
					<dim>3</dim>
					<dim>3</dim>
					<dim>3</dim>
				</port>
			</input>
			<output>
				<port id="1" precision="FP32">
					<dim>32</dim>
					<dim>3</dim>
					<dim>3</dim>
					<dim>3</dim>
				</port>
			</output>
		</layer>
		<layer id="158" name="StatefulPartitionedCall/model/conv2d/Conv2D/fq_weights_1/zero_point1554623358" type="Const" version="opset1">
			<data offset="1180" size="128" shape="32,1,1,1" element_type="f32"/>
			<output>
				<port id="0" precision="FP32">
					<dim>32</dim>
					<dim>1</dim>
					<dim>1</dim>
					<dim>1</dim>
				</port>
			</output>
		</layer>
		<layer id="159" name="StatefulPartitionedCall/model/conv2d/Conv2D/fq_weights_1/minus_zp" type="Subtract" version="opset1">
			<data auto_broadcast="numpy"/>
			<input>
				<port id="0">
					<dim>32</dim>
					<dim>3</dim>
					<dim>3</dim>
					<dim>3</dim>
				</port>
				<port id="1">
					<dim>32</dim>
					<dim>1</dim>
					<dim>1</dim>
					<dim>1</dim>
				</port>
			</input>
			<output>
				<port id="2" precision="FP32">
					<dim>32</dim>
					<dim>3</dim>
					<dim>3</dim>
					<dim>3</dim>
				</port>
			</output>
		</layer>
		<layer id="160" name="StatefulPartitionedCall/model/conv2d/Conv2D/fq_weights_1/scale1553524084" type="Const" version="opset1">
			<data offset="1308" size="128" shape="32,1,1,1" element_type="f32"/>
			<output>
				<port id="0" precision="FP32">
					<dim>32</dim>
					<dim>1</dim>
					<dim>1</dim>
					<dim>1</dim>
				</port>
			</output>
		</layer>
		<layer id="161" name="StatefulPartitionedCall/model/conv2d/Conv2D/fq_weights_1/mulpiply_by_scale" type="Multiply" version="opset1">
			<data auto_broadcast="numpy"/>
			<input>
				<port id="0">
					<dim>32</dim>
					<dim>3</dim>
					<dim>3</dim>
					<dim>3</dim>
				</port>
				<port id="1">
					<dim>32</dim>
					<dim>1</dim>
					<dim>1</dim>
					<dim>1</dim>
				</port>
			</input>
			<output>
				<port id="2" precision="FP32">
					<dim>32</dim>
					<dim>3</dim>
					<dim>3</dim>
					<dim>3</dim>
				</port>
			</output>
		</layer>
		<layer id="162" name="StatefulPartitionedCall/model/conv2d/Conv2D" type="Convolution" version="opset1">
			<data auto_pad="same_upper" strides="1,1" dilations="1,1" pads_begin="0,0" pads_end="0,0"/>
			<rt_info>
				<attribute name="fused_names" version="0" value="StatefulPartitionedCall/model/conv2d/Conv2D"/>
			</rt_info>
			<input>
				<port id="0">
					<dim>1</dim>
					<dim>3</dim>
					<dim>608</dim>
					<dim>608</dim>
				</port>
				<port id="1">
					<dim>32</dim>
					<dim>3</dim>
					<dim>3</dim>
					<dim>3</dim>
				</port>
			</input>
			<output>
				<port id="2" precision="FP32">
					<dim>1</dim>
					<dim>32</dim>
					<dim>608</dim>
					<dim>608</dim>
				</port>
			</output>
		</layer>
		<layer id="163" name="data_add_2184694123301" type="Const" version="opset1">
			<data offset="1436" size="64" shape="1,32,1,1" element_type="f16"/>
			<output>
				<port id="0" precision="FP16">
					<dim>1</dim>
					<dim>32</dim>
					<dim>1</dim>
					<dim>1</dim>
				</port>
			</output>
		</layer>
		<layer id="164" name="data_add_2184694112467/restored_convert" type="Convert" version="opset1">
			<data destination_type="f32"/>
			<rt_info>
				<attribute name="decompression" version="0"/>
				<attribute name="fused_names" version="0" value="data_add_21846"/>
			</rt_info>
			<input>
				<port id="0">
					<dim>1</dim>
					<dim>32</dim>
					<dim>1</dim>
					<dim>1</dim>
				</port>
			</input>
			<output>
				<port id="1" precision="FP32">
					<dim>1</dim>
					<dim>32</dim>
					<dim>1</dim>
					<dim>1</dim>
				</port>
			</output>
		</layer>
		<layer id="165" name="StatefulPartitionedCall/model/batch_normalization/FusedBatchNormV3/variance/Fused_Add_" type="Add" version="opset1">
			<data auto_broadcast="numpy"/>
			<rt_info>
				<attribute name="fused_names" version="0" value="StatefulPartitionedCall/model/batch_normalization/FusedBatchNormV3/variance/Fused_Add_"/>
			</rt_info>
			<input>
				<port id="0">
					<dim>1</dim>
					<dim>32</dim>
					<dim>608</dim>
					<dim>608</dim>
				</port>
				<port id="1">
					<dim>1</dim>
					<dim>32</dim>
					<dim>1</dim>
					<dim>1</dim>
				</port>
			</input>
			<output>
				<port id="2" precision="FP32" names="StatefulPartitionedCall/model/batch_normalization/FusedBatchNormV3:0">
					<dim>1</dim>
					<dim>32</dim>
					<dim>608</dim>
					<dim>608</dim>
				</port>
			</output>
		</layer>
		<layer id="166" name="StatefulPartitionedCall/model/activation/mul" type="Mish" version="opset4">
			<rt_info>
				<attribute name="fused_names" version="0" value="StatefulPartitionedCall/model/activation/Softplus, StatefulPartitionedCall/model/activation/Tanh, StatefulPartitionedCall/model/activation/mul"/>
			</rt_info>
			<input>
				<port id="0">
					<dim>1</dim>
					<dim>32</dim>
					<dim>608</dim>
					<dim>608</dim>
				</port>
			</input>
			<output>
				<port id="1" precision="FP32" names="StatefulPartitionedCall/model/activation/mul:0">
					<dim>1</dim>
					<dim>32</dim>
					<dim>608</dim>
					<dim>608</dim>
				</port>
			</output>
		</layer>
		<layer id="167" name="StatefulPartitionedCall/model/conv2d_1/Conv2D/fq_input_0" type="FakeQuantize" version="opset1">
			<data levels="256" auto_broadcast="numpy"/>
			<input>
				<port id="0">
					<dim>1</dim>
					<dim>32</dim>
					<dim>608</dim>
					<dim>608</dim>
				</port>
				<port id="1">
					<dim>1</dim>
					<dim>1</dim>
					<dim>1</dim>
					<dim>1</dim>
				</port>
				<port id="2">
					<dim>1</dim>
					<dim>1</dim>
					<dim>1</dim>
					<dim>1</dim>
				</port>
				<port id="3">
					<dim>1</dim>
					<dim>1</dim>
					<dim>1</dim>
					<dim>1</dim>
				</port>
				<port id="4">
					<dim>1</dim>
					<dim>1</dim>
					<dim>1</dim>
					<dim>1</dim>
				</port>
			</input>
			<output>
				<port id="5" precision="FP32">
					<dim>1</dim>
					<dim>32</dim>
					<dim>608</dim>
					<dim>608</dim>
				</port>
			</output>
		</layer>
		<layer id="168" name="StatefulPartitionedCall/model/batch_normalization_1/FusedBatchNormV3/mean/Fused_Mul__copy94512468/restored_convert/quantized1705723949" type="Const" version="opset1">
			<data offset="1500" size="18432" shape="64,32,3,3" element_type="i8"/>
			<output>
				<port id="0" precision="I8">
					<dim>64</dim>
					<dim>32</dim>
					<dim>3</dim>
					<dim>3</dim>
				</port>
			</output>
		</layer>
		<layer id="169" name="StatefulPartitionedCall/model/batch_normalization_1/FusedBatchNormV3/mean/Fused_Mul__copy94512468/restored_convert/quantized/to_f32" type="Convert" version="opset1">
			<data destination_type="f32"/>
			<input>
				<port id="0">
					<dim>64</dim>
					<dim>32</dim>
					<dim>3</dim>
					<dim>3</dim>
				</port>
			</input>
			<output>
				<port id="1" precision="FP32">
					<dim>64</dim>
					<dim>32</dim>
					<dim>3</dim>
					<dim>3</dim>
				</port>
			</output>
		</layer>
		<layer id="170" name="StatefulPartitionedCall/model/conv2d_1/Conv2D/fq_weights_1/zero_point1707623172" type="Const" version="opset1">
			<data offset="19932" size="256" shape="64,1,1,1" element_type="f32"/>
			<output>
				<port id="0" precision="FP32">
					<dim>64</dim>
					<dim>1</dim>
					<dim>1</dim>
					<dim>1</dim>
				</port>
			</output>
		</layer>
		<layer id="171" name="StatefulPartitionedCall/model/conv2d_1/Conv2D/fq_weights_1/minus_zp" type="Subtract" version="opset1">
			<data auto_broadcast="numpy"/>
			<input>
				<port id="0">
					<dim>64</dim>
					<dim>32</dim>
					<dim>3</dim>
					<dim>3</dim>
				</port>
				<port id="1">
					<dim>64</dim>
					<dim>1</dim>
					<dim>1</dim>
					<dim>1</dim>
				</port>
			</input>
			<output>
				<port id="2" precision="FP32">
					<dim>64</dim>
					<dim>32</dim>
					<dim>3</dim>
					<dim>3</dim>
				</port>
			</output>
		</layer>
		<layer id="172" name="StatefulPartitionedCall/model/conv2d_1/Conv2D/fq_weights_1/scale1706524030" type="Const" version="opset1">
			<data offset="20188" size="256" shape="64,1,1,1" element_type="f32"/>
			<output>
				<port id="0" precision="FP32">
					<dim>64</dim>
					<dim>1</dim>
					<dim>1</dim>
					<dim>1</dim>
				</port>
			</output>
		</layer>
		<layer id="173" name="StatefulPartitionedCall/model/conv2d_1/Conv2D/fq_weights_1/mulpiply_by_scale" type="Multiply" version="opset1">
			<data auto_broadcast="numpy"/>
			<input>
				<port id="0">
					<dim>64</dim>
					<dim>32</dim>
					<dim>3</dim>
					<dim>3</dim>
				</port>
				<port id="1">
					<dim>64</dim>
					<dim>1</dim>
					<dim>1</dim>
					<dim>1</dim>
				</port>
			</input>
			<output>
				<port id="2" precision="FP32">
					<dim>64</dim>
					<dim>32</dim>
					<dim>3</dim>
					<dim>3</dim>
				</port>
			</output>
		</layer>
		<layer id="174" name="StatefulPartitionedCall/model/conv2d_1/Conv2D" type="Convolution" version="opset1">
			<data auto_pad="explicit" strides="2,2" dilations="1,1" pads_begin="1,1" pads_end="0,0"/>
			<rt_info>
				<attribute name="fused_names" version="0" value="StatefulPartitionedCall/model/conv2d_1/Conv2D, StatefulPartitionedCall/model/zero_padding2d/Pad"/>
			</rt_info>
			<input>
				<port id="0">
					<dim>1</dim>
					<dim>32</dim>
					<dim>608</dim>
					<dim>608</dim>
				</port>
				<port id="1">
					<dim>64</dim>
					<dim>32</dim>
					<dim>3</dim>
					<dim>3</dim>
				</port>
			</input>
			<output>
				<port id="2" precision="FP32">
					<dim>1</dim>
					<dim>64</dim>
					<dim>304</dim>
					<dim>304</dim>
				</port>
			</output>
		</layer>
		<layer id="175" name="data_add_218492185494821810" type="Const" version="opset1">
			<data offset="20444" size="128" shape="1,64,1,1" element_type="f16"/>
			<output>
				<port id="0" precision="FP16">
					<dim>1</dim>
					<dim>64</dim>
					<dim>1</dim>
					<dim>1</dim>
				</port>
			</output>
		</layer>
		<layer id="176" name="data_add_218492185494812469/restored_convert" type="Convert" version="opset1">
			<data destination_type="f32"/>
			<rt_info>
				<attribute name="decompression" version="0"/>
				<attribute name="fused_names" version="0" value="data_add_2184921854"/>
			</rt_info>
			<input>
				<port id="0">
					<dim>1</dim>
					<dim>64</dim>
					<dim>1</dim>
					<dim>1</dim>
				</port>
			</input>
			<output>
				<port id="1" precision="FP32">
					<dim>1</dim>
					<dim>64</dim>
					<dim>1</dim>
					<dim>1</dim>
				</port>
			</output>
		</layer>
		<layer id="177" name="StatefulPartitionedCall/model/batch_normalization_1/FusedBatchNormV3/variance/Fused_Add_" type="Add" version="opset1">
			<data auto_broadcast="numpy"/>
			<rt_info>
				<attribute name="fused_names" version="0" value="StatefulPartitionedCall/model/batch_normalization_1/FusedBatchNormV3/variance/Fused_Add_"/>
			</rt_info>
			<input>
				<port id="0">
					<dim>1</dim>
					<dim>64</dim>
					<dim>304</dim>
					<dim>304</dim>
				</port>
				<port id="1">
					<dim>1</dim>
					<dim>64</dim>
					<dim>1</dim>
					<dim>1</dim>
				</port>
			</input>
			<output>
				<port id="2" precision="FP32" names="StatefulPartitionedCall/model/batch_normalization_1/FusedBatchNormV3:0">
					<dim>1</dim>
					<dim>64</dim>
					<dim>304</dim>
					<dim>304</dim>
				</port>
			</output>
		</layer>
		<layer id="178" name="StatefulPartitionedCall/model/activation_1/mul" type="Mish" version="opset4">
			<rt_info>
				<attribute name="fused_names" version="0" value="StatefulPartitionedCall/model/activation_1/Softplus, StatefulPartitionedCall/model/activation_1/Tanh, StatefulPartitionedCall/model/activation_1/mul"/>
			</rt_info>
			<input>
				<port id="0">
					<dim>1</dim>
					<dim>64</dim>
					<dim>304</dim>
					<dim>304</dim>
				</port>
			</input>
			<output>
				<port id="1" precision="FP32" names="StatefulPartitionedCall/model/activation_1/mul:0">
					<dim>1</dim>
					<dim>64</dim>
					<dim>304</dim>
					<dim>304</dim>
				</port>
			</output>
		</layer>
		<layer id="179" name="StatefulPartitionedCall/model/conv2d_2/Conv2D/fq_input_0" type="FakeQuantize" version="opset1">
			<data levels="256" auto_broadcast="numpy"/>
			<input>
				<port id="0">
					<dim>1</dim>
					<dim>64</dim>
					<dim>304</dim>
					<dim>304</dim>
				</port>
				<port id="1">
					<dim>1</dim>
					<dim>1</dim>
					<dim>1</dim>
					<dim>1</dim>
				</port>
				<port id="2">
					<dim>1</dim>
					<dim>1</dim>
					<dim>1</dim>
					<dim>1</dim>
				</port>
				<port id="3">
					<dim>1</dim>
					<dim>1</dim>
					<dim>1</dim>
					<dim>1</dim>
				</port>
				<port id="4">
					<dim>1</dim>
					<dim>1</dim>
					<dim>1</dim>
					<dim>1</dim>
				</port>
			</input>
			<output>
				<port id="5" precision="FP32">
					<dim>1</dim>
					<dim>64</dim>
					<dim>304</dim>
					<dim>304</dim>
				</port>
			</output>
		</layer>
		<layer id="180" name="StatefulPartitionedCall/model/batch_normalization_3/FusedBatchNormV3/mean/Fused_Mul__copy95212470/restored_convert/quantized1501722242" type="Const" version="opset1">
			<data offset="20572" size="4096" shape="64,64,1,1" element_type="i8"/>
			<output>
				<port id="0" precision="I8">
					<dim>64</dim>
					<dim>64</dim>
					<dim>1</dim>
					<dim>1</dim>
				</port>
			</output>
		</layer>
		<layer id="181" name="StatefulPartitionedCall/model/batch_normalization_3/FusedBatchNormV3/mean/Fused_Mul__copy95212470/restored_convert/quantized/to_f32" type="Convert" version="opset1">
			<data destination_type="f32"/>
			<input>
				<port id="0">
					<dim>64</dim>
					<dim>64</dim>
					<dim>1</dim>
					<dim>1</dim>
				</port>
			</input>
			<output>
				<port id="1" precision="FP32">
					<dim>64</dim>
					<dim>64</dim>
					<dim>1</dim>
					<dim>1</dim>
				</port>
			</output>
		</layer>
		<layer id="182" name="StatefulPartitionedCall/model/conv2d_3/Conv2D/fq_weights_1/zero_point1503623103" type="Const" version="opset1">
			<data offset="24668" size="256" shape="64,1,1,1" element_type="f32"/>
			<output>
				<port id="0" precision="FP32">
					<dim>64</dim>
					<dim>1</dim>
					<dim>1</dim>
					<dim>1</dim>
				</port>
			</output>
		</layer>
		<layer id="183" name="StatefulPartitionedCall/model/conv2d_3/Conv2D/fq_weights_1/minus_zp" type="Subtract" version="opset1">
			<data auto_broadcast="numpy"/>
			<input>
				<port id="0">
					<dim>64</dim>
					<dim>64</dim>
					<dim>1</dim>
					<dim>1</dim>
				</port>
				<port id="1">
					<dim>64</dim>
					<dim>1</dim>
					<dim>1</dim>
					<dim>1</dim>
				</port>
			</input>
			<output>
				<port id="2" precision="FP32">
					<dim>64</dim>
					<dim>64</dim>
					<dim>1</dim>
					<dim>1</dim>
				</port>
			</output>
		</layer>
		<layer id="184" name="StatefulPartitionedCall/model/conv2d_3/Conv2D/fq_weights_1/scale1502522389" type="Const" version="opset1">
			<data offset="24924" size="256" shape="64,1,1,1" element_type="f32"/>
			<output>
				<port id="0" precision="FP32">
					<dim>64</dim>
					<dim>1</dim>
					<dim>1</dim>
					<dim>1</dim>
				</port>
			</output>
		</layer>
		<layer id="185" name="StatefulPartitionedCall/model/conv2d_3/Conv2D/fq_weights_1/mulpiply_by_scale" type="Multiply" version="opset1">
			<data auto_broadcast="numpy"/>
			<input>
				<port id="0">
					<dim>64</dim>
					<dim>64</dim>
					<dim>1</dim>
					<dim>1</dim>
				</port>
				<port id="1">
					<dim>64</dim>
					<dim>1</dim>
					<dim>1</dim>
					<dim>1</dim>
				</port>
			</input>
			<output>
				<port id="2" precision="FP32">
					<dim>64</dim>
					<dim>64</dim>
					<dim>1</dim>
					<dim>1</dim>
				</port>
			</output>
		</layer>
		<layer id="186" name="StatefulPartitionedCall/model/conv2d_3/Conv2D" type="Convolution" version="opset1">
			<data auto_pad="same_upper" strides="1,1" dilations="1,1" pads_begin="0,0" pads_end="0,0"/>
			<rt_info>
				<attribute name="fused_names" version="0" value="StatefulPartitionedCall/model/conv2d_3/Conv2D"/>
			</rt_info>
			<input>
				<port id="0">
					<dim>1</dim>
					<dim>64</dim>
					<dim>304</dim>
					<dim>304</dim>
				</port>
				<port id="1">
					<dim>64</dim>
					<dim>64</dim>
					<dim>1</dim>
					<dim>1</dim>
				</port>
			</input>
			<output>
				<port id="2" precision="FP32">
					<dim>1</dim>
					<dim>64</dim>
					<dim>304</dim>
					<dim>304</dim>
				</port>
			</output>
		</layer>
		<layer id="187" name="data_add_218652187095522980" type="Const" version="opset1">
			<data offset="25180" size="128" shape="1,64,1,1" element_type="f16"/>
			<output>
				<port id="0" precision="FP16">
					<dim>1</dim>
					<dim>64</dim>
					<dim>1</dim>
					<dim>1</dim>
				</port>
			</output>
		</layer>
		<layer id="188" name="data_add_218652187095512471/restored_convert" type="Convert" version="opset1">
			<data destination_type="f32"/>
			<rt_info>
				<attribute name="decompression" version="0"/>
				<attribute name="fused_names" version="0" value="data_add_2186521870"/>
			</rt_info>
			<input>
				<port id="0">
					<dim>1</dim>
					<dim>64</dim>
					<dim>1</dim>
					<dim>1</dim>
				</port>
			</input>
			<output>
				<port id="1" precision="FP32">
					<dim>1</dim>
					<dim>64</dim>
					<dim>1</dim>
					<dim>1</dim>
				</port>
			</output>
		</layer>
		<layer id="189" name="StatefulPartitionedCall/model/batch_normalization_3/FusedBatchNormV3/variance/Fused_Add_" type="Add" version="opset1">
			<data auto_broadcast="numpy"/>
			<rt_info>
				<attribute name="fused_names" version="0" value="StatefulPartitionedCall/model/batch_normalization_3/FusedBatchNormV3/variance/Fused_Add_"/>
			</rt_info>
			<input>
				<port id="0">
					<dim>1</dim>
					<dim>64</dim>
					<dim>304</dim>
					<dim>304</dim>
				</port>
				<port id="1">
					<dim>1</dim>
					<dim>64</dim>
					<dim>1</dim>
					<dim>1</dim>
				</port>
			</input>
			<output>
				<port id="2" precision="FP32" names="StatefulPartitionedCall/model/batch_normalization_3/FusedBatchNormV3:0">
					<dim>1</dim>
					<dim>64</dim>
					<dim>304</dim>
					<dim>304</dim>
				</port>
			</output>
		</layer>
		<layer id="190" name="StatefulPartitionedCall/model/activation_3/mul" type="Mish" version="opset4">
			<rt_info>
				<attribute name="fused_names" version="0" value="StatefulPartitionedCall/model/activation_3/Softplus, StatefulPartitionedCall/model/activation_3/Tanh, StatefulPartitionedCall/model/activation_3/mul"/>
			</rt_info>
			<input>
				<port id="0">
					<dim>1</dim>
					<dim>64</dim>
					<dim>304</dim>
					<dim>304</dim>
				</port>
			</input>
			<output>
				<port id="1" precision="FP32" names="StatefulPartitionedCall/model/activation_3/mul:0">
					<dim>1</dim>
					<dim>64</dim>
					<dim>304</dim>
					<dim>304</dim>
				</port>
			</output>
		</layer>
		<layer id="191" name="StatefulPartitionedCall/model/add/add/fq_input_0" type="FakeQuantize" version="opset1">
			<data levels="256" auto_broadcast="numpy"/>
			<input>
				<port id="0">
					<dim>1</dim>
					<dim>64</dim>
					<dim>304</dim>
					<dim>304</dim>
				</port>
				<port id="1">
					<dim>1</dim>
					<dim>1</dim>
					<dim>1</dim>
					<dim>1</dim>
				</port>
				<port id="2">
					<dim>1</dim>
					<dim>1</dim>
					<dim>1</dim>
					<dim>1</dim>
				</port>
				<port id="3">
					<dim>1</dim>
					<dim>1</dim>
					<dim>1</dim>
					<dim>1</dim>
				</port>
				<port id="4">
					<dim>1</dim>
					<dim>1</dim>
					<dim>1</dim>
					<dim>1</dim>
				</port>
			</input>
			<output>
				<port id="5" precision="FP32">
					<dim>1</dim>
					<dim>64</dim>
					<dim>304</dim>
					<dim>304</dim>
				</port>
			</output>
		</layer>
		<layer id="192" name="5253525724318" type="Const" version="opset1">
			<data offset="200" size="4" shape="1,1,1,1" element_type="f32"/>
			<output>
				<port id="0" precision="FP32">
					<dim>1</dim>
					<dim>1</dim>
					<dim>1</dim>
					<dim>1</dim>
				</port>
			</output>
		</layer>
		<layer id="193" name="5254525823223" type="Const" version="opset1">
			<data offset="204" size="4" shape="1,1,1,1" element_type="f32"/>
			<output>
				<port id="0" precision="FP32">
					<dim>1</dim>
					<dim>1</dim>
					<dim>1</dim>
					<dim>1</dim>
				</port>
			</output>
		</layer>
		<layer id="194" name="5255525923691" type="Const" version="opset1">
			<data offset="200" size="4" shape="1,1,1,1" element_type="f32"/>
			<output>
				<port id="0" precision="FP32">
					<dim>1</dim>
					<dim>1</dim>
					<dim>1</dim>
					<dim>1</dim>
				</port>
			</output>
		</layer>
		<layer id="195" name="5256526023217" type="Const" version="opset1">
			<data offset="204" size="4" shape="1,1,1,1" element_type="f32"/>
			<output>
				<port id="0" precision="FP32">
					<dim>1</dim>
					<dim>1</dim>
					<dim>1</dim>
					<dim>1</dim>
				</port>
			</output>
		</layer>
		<layer id="196" name="4063406724366" type="Const" version="opset1">
			<data offset="25308" size="4" shape="1,1,1,1" element_type="f32"/>
			<output>
				<port id="0" precision="FP32">
					<dim>1</dim>
					<dim>1</dim>
					<dim>1</dim>
					<dim>1</dim>
				</port>
			</output>
		</layer>
		<layer id="197" name="4064406822686" type="Const" version="opset1">
			<data offset="25312" size="4" shape="1,1,1,1" element_type="f32"/>
			<output>
				<port id="0" precision="FP32">
					<dim>1</dim>
					<dim>1</dim>
					<dim>1</dim>
					<dim>1</dim>
				</port>
			</output>
		</layer>
		<layer id="198" name="4065406922350" type="Const" version="opset1">
			<data offset="25308" size="4" shape="1,1,1,1" element_type="f32"/>
			<output>
				<port id="0" precision="FP32">
					<dim>1</dim>
					<dim>1</dim>
					<dim>1</dim>
					<dim>1</dim>
				</port>
			</output>
		</layer>
		<layer id="199" name="4066407023766" type="Const" version="opset1">
			<data offset="25312" size="4" shape="1,1,1,1" element_type="f32"/>
			<output>
				<port id="0" precision="FP32">
					<dim>1</dim>
					<dim>1</dim>
					<dim>1</dim>
					<dim>1</dim>
				</port>
			</output>
		</layer>
		<layer id="200" name="StatefulPartitionedCall/model/batch_normalization_4/FusedBatchNormV3/mean/Fused_Mul__copy95912472/restored_convert/quantized1720723214" type="Const" version="opset1">
			<data offset="25316" size="2048" shape="32,64,1,1" element_type="i8"/>
			<output>
				<port id="0" precision="I8">
					<dim>32</dim>
					<dim>64</dim>
					<dim>1</dim>
					<dim>1</dim>
				</port>
			</output>
		</layer>
		<layer id="201" name="StatefulPartitionedCall/model/batch_normalization_4/FusedBatchNormV3/mean/Fused_Mul__copy95912472/restored_convert/quantized/to_f32" type="Convert" version="opset1">
			<data destination_type="f32"/>
			<input>
				<port id="0">
					<dim>32</dim>
					<dim>64</dim>
					<dim>1</dim>
					<dim>1</dim>
				</port>
			</input>
			<output>
				<port id="1" precision="FP32">
					<dim>32</dim>
					<dim>64</dim>
					<dim>1</dim>
					<dim>1</dim>
				</port>
			</output>
		</layer>
		<layer id="202" name="StatefulPartitionedCall/model/conv2d_4/Conv2D/fq_weights_1/zero_point1722623745" type="Const" version="opset1">
			<data offset="27364" size="128" shape="32,1,1,1" element_type="f32"/>
			<output>
				<port id="0" precision="FP32">
					<dim>32</dim>
					<dim>1</dim>
					<dim>1</dim>
					<dim>1</dim>
				</port>
			</output>
		</layer>
		<layer id="203" name="StatefulPartitionedCall/model/conv2d_4/Conv2D/fq_weights_1/minus_zp" type="Subtract" version="opset1">
			<data auto_broadcast="numpy"/>
			<input>
				<port id="0">
					<dim>32</dim>
					<dim>64</dim>
					<dim>1</dim>
					<dim>1</dim>
				</port>
				<port id="1">
					<dim>32</dim>
					<dim>1</dim>
					<dim>1</dim>
					<dim>1</dim>
				</port>
			</input>
			<output>
				<port id="2" precision="FP32">
					<dim>32</dim>
					<dim>64</dim>
					<dim>1</dim>
					<dim>1</dim>
				</port>
			</output>
		</layer>
		<layer id="204" name="StatefulPartitionedCall/model/conv2d_4/Conv2D/fq_weights_1/scale1721524573" type="Const" version="opset1">
			<data offset="27492" size="128" shape="32,1,1,1" element_type="f32"/>
			<output>
				<port id="0" precision="FP32">
					<dim>32</dim>
					<dim>1</dim>
					<dim>1</dim>
					<dim>1</dim>
				</port>
			</output>
		</layer>
		<layer id="205" name="StatefulPartitionedCall/model/conv2d_4/Conv2D/fq_weights_1/mulpiply_by_scale" type="Multiply" version="opset1">
			<data auto_broadcast="numpy"/>
			<input>
				<port id="0">
					<dim>32</dim>
					<dim>64</dim>
					<dim>1</dim>
					<dim>1</dim>
				</port>
				<port id="1">
					<dim>32</dim>
					<dim>1</dim>
					<dim>1</dim>
					<dim>1</dim>
				</port>
			</input>
			<output>
				<port id="2" precision="FP32">
					<dim>32</dim>
					<dim>64</dim>
					<dim>1</dim>
					<dim>1</dim>
				</port>
			</output>
		</layer>
		<layer id="206" name="StatefulPartitionedCall/model/conv2d_4/Conv2D" type="Convolution" version="opset1">
			<data auto_pad="same_upper" strides="1,1" dilations="1,1" pads_begin="0,0" pads_end="0,0"/>
			<rt_info>
				<attribute name="fused_names" version="0" value="StatefulPartitionedCall/model/conv2d_4/Conv2D"/>
			</rt_info>
			<input>
				<port id="0">
					<dim>1</dim>
					<dim>64</dim>
					<dim>304</dim>
					<dim>304</dim>
				</port>
				<port id="1">
					<dim>32</dim>
					<dim>64</dim>
					<dim>1</dim>
					<dim>1</dim>
				</port>
			</input>
			<output>
				<port id="2" precision="FP32">
					<dim>1</dim>
					<dim>32</dim>
					<dim>304</dim>
					<dim>304</dim>
				</port>
			</output>
		</layer>
		<layer id="207" name="data_add_218732187896223688" type="Const" version="opset1">
			<data offset="27620" size="64" shape="1,32,1,1" element_type="f16"/>
			<output>
				<port id="0" precision="FP16">
					<dim>1</dim>
					<dim>32</dim>
					<dim>1</dim>
					<dim>1</dim>
				</port>
			</output>
		</layer>
		<layer id="208" name="data_add_218732187896212473/restored_convert" type="Convert" version="opset1">
			<data destination_type="f32"/>
			<rt_info>
				<attribute name="decompression" version="0"/>
				<attribute name="fused_names" version="0" value="data_add_2187321878"/>
			</rt_info>
			<input>
				<port id="0">
					<dim>1</dim>
					<dim>32</dim>
					<dim>1</dim>
					<dim>1</dim>
				</port>
			</input>
			<output>
				<port id="1" precision="FP32">
					<dim>1</dim>
					<dim>32</dim>
					<dim>1</dim>
					<dim>1</dim>
				</port>
			</output>
		</layer>
		<layer id="209" name="StatefulPartitionedCall/model/batch_normalization_4/FusedBatchNormV3/variance/Fused_Add_" type="Add" version="opset1">
			<data auto_broadcast="numpy"/>
			<rt_info>
				<attribute name="fused_names" version="0" value="StatefulPartitionedCall/model/batch_normalization_4/FusedBatchNormV3/variance/Fused_Add_"/>
			</rt_info>
			<input>
				<port id="0">
					<dim>1</dim>
					<dim>32</dim>
					<dim>304</dim>
					<dim>304</dim>
				</port>
				<port id="1">
					<dim>1</dim>
					<dim>32</dim>
					<dim>1</dim>
					<dim>1</dim>
				</port>
			</input>
			<output>
				<port id="2" precision="FP32" names="StatefulPartitionedCall/model/batch_normalization_4/FusedBatchNormV3:0">
					<dim>1</dim>
					<dim>32</dim>
					<dim>304</dim>
					<dim>304</dim>
				</port>
			</output>
		</layer>
		<layer id="210" name="StatefulPartitionedCall/model/activation_4/mul" type="Mish" version="opset4">
			<rt_info>
				<attribute name="fused_names" version="0" value="StatefulPartitionedCall/model/activation_4/Softplus, StatefulPartitionedCall/model/activation_4/Tanh, StatefulPartitionedCall/model/activation_4/mul"/>
			</rt_info>
			<input>
				<port id="0">
					<dim>1</dim>
					<dim>32</dim>
					<dim>304</dim>
					<dim>304</dim>
				</port>
			</input>
			<output>
				<port id="1" precision="FP32" names="StatefulPartitionedCall/model/activation_4/mul:0">
					<dim>1</dim>
					<dim>32</dim>
					<dim>304</dim>
					<dim>304</dim>
				</port>
			</output>
		</layer>
		<layer id="211" name="StatefulPartitionedCall/model/conv2d_5/Conv2D/fq_input_0" type="FakeQuantize" version="opset1">
			<data levels="256" auto_broadcast="numpy"/>
			<input>
				<port id="0">
					<dim>1</dim>
					<dim>32</dim>
					<dim>304</dim>
					<dim>304</dim>
				</port>
				<port id="1">
					<dim>1</dim>
					<dim>1</dim>
					<dim>1</dim>
					<dim>1</dim>
				</port>
				<port id="2">
					<dim>1</dim>
					<dim>1</dim>
					<dim>1</dim>
					<dim>1</dim>
				</port>
				<port id="3">
					<dim>1</dim>
					<dim>1</dim>
					<dim>1</dim>
					<dim>1</dim>
				</port>
				<port id="4">
					<dim>1</dim>
					<dim>1</dim>
					<dim>1</dim>
					<dim>1</dim>
				</port>
			</input>
			<output>
				<port id="5" precision="FP32">
					<dim>1</dim>
					<dim>32</dim>
					<dim>304</dim>
					<dim>304</dim>
				</port>
			</output>
		</layer>
		<layer id="212" name="StatefulPartitionedCall/model/batch_normalization_5/FusedBatchNormV3/mean/Fused_Mul__copy96612474/restored_convert/quantized1648723952" type="Const" version="opset1">
			<data offset="27684" size="18432" shape="64,32,3,3" element_type="i8"/>
			<output>
				<port id="0" precision="I8">
					<dim>64</dim>
					<dim>32</dim>
					<dim>3</dim>
					<dim>3</dim>
				</port>
			</output>
		</layer>
		<layer id="213" name="StatefulPartitionedCall/model/batch_normalization_5/FusedBatchNormV3/mean/Fused_Mul__copy96612474/restored_convert/quantized/to_f32" type="Convert" version="opset1">
			<data destination_type="f32"/>
			<input>
				<port id="0">
					<dim>64</dim>
					<dim>32</dim>
					<dim>3</dim>
					<dim>3</dim>
				</port>
			</input>
			<output>
				<port id="1" precision="FP32">
					<dim>64</dim>
					<dim>32</dim>
					<dim>3</dim>
					<dim>3</dim>
				</port>
			</output>
		</layer>
		<layer id="214" name="StatefulPartitionedCall/model/conv2d_5/Conv2D/fq_weights_1/zero_point1650622368" type="Const" version="opset1">
			<data offset="46116" size="256" shape="64,1,1,1" element_type="f32"/>
			<output>
				<port id="0" precision="FP32">
					<dim>64</dim>
					<dim>1</dim>
					<dim>1</dim>
					<dim>1</dim>
				</port>
			</output>
		</layer>
		<layer id="215" name="StatefulPartitionedCall/model/conv2d_5/Conv2D/fq_weights_1/minus_zp" type="Subtract" version="opset1">
			<data auto_broadcast="numpy"/>
			<input>
				<port id="0">
					<dim>64</dim>
					<dim>32</dim>
					<dim>3</dim>
					<dim>3</dim>
				</port>
				<port id="1">
					<dim>64</dim>
					<dim>1</dim>
					<dim>1</dim>
					<dim>1</dim>
				</port>
			</input>
			<output>
				<port id="2" precision="FP32">
					<dim>64</dim>
					<dim>32</dim>
					<dim>3</dim>
					<dim>3</dim>
				</port>
			</output>
		</layer>
		<layer id="216" name="StatefulPartitionedCall/model/conv2d_5/Conv2D/fq_weights_1/scale1649523925" type="Const" version="opset1">
			<data offset="46372" size="256" shape="64,1,1,1" element_type="f32"/>
			<output>
				<port id="0" precision="FP32">
					<dim>64</dim>
					<dim>1</dim>
					<dim>1</dim>
					<dim>1</dim>
				</port>
			</output>
		</layer>
		<layer id="217" name="StatefulPartitionedCall/model/conv2d_5/Conv2D/fq_weights_1/mulpiply_by_scale" type="Multiply" version="opset1">
			<data auto_broadcast="numpy"/>
			<input>
				<port id="0">
					<dim>64</dim>
					<dim>32</dim>
					<dim>3</dim>
					<dim>3</dim>
				</port>
				<port id="1">
					<dim>64</dim>
					<dim>1</dim>
					<dim>1</dim>
					<dim>1</dim>
				</port>
			</input>
			<output>
				<port id="2" precision="FP32">
					<dim>64</dim>
					<dim>32</dim>
					<dim>3</dim>
					<dim>3</dim>
				</port>
			</output>
		</layer>
		<layer id="218" name="StatefulPartitionedCall/model/conv2d_5/Conv2D" type="Convolution" version="opset1">
			<data auto_pad="same_upper" strides="1,1" dilations="1,1" pads_begin="0,0" pads_end="0,0"/>
			<rt_info>
				<attribute name="fused_names" version="0" value="StatefulPartitionedCall/model/conv2d_5/Conv2D"/>
			</rt_info>
			<input>
				<port id="0">
					<dim>1</dim>
					<dim>32</dim>
					<dim>304</dim>
					<dim>304</dim>
				</port>
				<port id="1">
					<dim>64</dim>
					<dim>32</dim>
					<dim>3</dim>
					<dim>3</dim>
				</port>
			</input>
			<output>
				<port id="2" precision="FP32">
					<dim>1</dim>
					<dim>64</dim>
					<dim>304</dim>
					<dim>304</dim>
				</port>
			</output>
		</layer>
		<layer id="219" name="data_add_218812188696921867" type="Const" version="opset1">
			<data offset="46628" size="128" shape="1,64,1,1" element_type="f16"/>
			<output>
				<port id="0" precision="FP16">
					<dim>1</dim>
					<dim>64</dim>
					<dim>1</dim>
					<dim>1</dim>
				</port>
			</output>
		</layer>
		<layer id="220" name="data_add_218812188696912475/restored_convert" type="Convert" version="opset1">
			<data destination_type="f32"/>
			<rt_info>
				<attribute name="decompression" version="0"/>
				<attribute name="fused_names" version="0" value="data_add_2188121886"/>
			</rt_info>
			<input>
				<port id="0">
					<dim>1</dim>
					<dim>64</dim>
					<dim>1</dim>
					<dim>1</dim>
				</port>
			</input>
			<output>
				<port id="1" precision="FP32">
					<dim>1</dim>
					<dim>64</dim>
					<dim>1</dim>
					<dim>1</dim>
				</port>
			</output>
		</layer>
		<layer id="221" name="StatefulPartitionedCall/model/batch_normalization_5/FusedBatchNormV3/variance/Fused_Add_" type="Add" version="opset1">
			<data auto_broadcast="numpy"/>
			<rt_info>
				<attribute name="fused_names" version="0" value="StatefulPartitionedCall/model/batch_normalization_5/FusedBatchNormV3/variance/Fused_Add_"/>
			</rt_info>
			<input>
				<port id="0">
					<dim>1</dim>
					<dim>64</dim>
					<dim>304</dim>
					<dim>304</dim>
				</port>
				<port id="1">
					<dim>1</dim>
					<dim>64</dim>
					<dim>1</dim>
					<dim>1</dim>
				</port>
			</input>
			<output>
				<port id="2" precision="FP32" names="StatefulPartitionedCall/model/batch_normalization_5/FusedBatchNormV3:0">
					<dim>1</dim>
					<dim>64</dim>
					<dim>304</dim>
					<dim>304</dim>
				</port>
			</output>
		</layer>
		<layer id="222" name="StatefulPartitionedCall/model/activation_5/mul" type="Mish" version="opset4">
			<rt_info>
				<attribute name="fused_names" version="0" value="StatefulPartitionedCall/model/activation_5/Softplus, StatefulPartitionedCall/model/activation_5/Tanh, StatefulPartitionedCall/model/activation_5/mul"/>
			</rt_info>
			<input>
				<port id="0">
					<dim>1</dim>
					<dim>64</dim>
					<dim>304</dim>
					<dim>304</dim>
				</port>
			</input>
			<output>
				<port id="1" precision="FP32" names="StatefulPartitionedCall/model/activation_5/mul:0">
					<dim>1</dim>
					<dim>64</dim>
					<dim>304</dim>
					<dim>304</dim>
				</port>
			</output>
		</layer>
		<layer id="223" name="StatefulPartitionedCall/model/add/add/fq_input_1" type="FakeQuantize" version="opset1">
			<data levels="256" auto_broadcast="numpy"/>
			<input>
				<port id="0">
					<dim>1</dim>
					<dim>64</dim>
					<dim>304</dim>
					<dim>304</dim>
				</port>
				<port id="1">
					<dim>1</dim>
					<dim>1</dim>
					<dim>1</dim>
					<dim>1</dim>
				</port>
				<port id="2">
					<dim>1</dim>
					<dim>1</dim>
					<dim>1</dim>
					<dim>1</dim>
				</port>
				<port id="3">
					<dim>1</dim>
					<dim>1</dim>
					<dim>1</dim>
					<dim>1</dim>
				</port>
				<port id="4">
					<dim>1</dim>
					<dim>1</dim>
					<dim>1</dim>
					<dim>1</dim>
				</port>
			</input>
			<output>
				<port id="5" precision="FP32">
					<dim>1</dim>
					<dim>64</dim>
					<dim>304</dim>
					<dim>304</dim>
				</port>
			</output>
		</layer>
		<layer id="224" name="StatefulPartitionedCall/model/add/add" type="Add" version="opset1">
			<data auto_broadcast="numpy"/>
			<rt_info>
				<attribute name="fused_names" version="0" value="StatefulPartitionedCall/model/add/add"/>
			</rt_info>
			<input>
				<port id="0">
					<dim>1</dim>
					<dim>64</dim>
					<dim>304</dim>
					<dim>304</dim>
				</port>
				<port id="1">
					<dim>1</dim>
					<dim>64</dim>
					<dim>304</dim>
					<dim>304</dim>
				</port>
			</input>
			<output>
				<port id="2" precision="FP32" names="StatefulPartitionedCall/model/add/add:0">
					<dim>1</dim>
					<dim>64</dim>
					<dim>304</dim>
					<dim>304</dim>
				</port>
			</output>
		</layer>
		<layer id="225" name="StatefulPartitionedCall/model/conv2d_6/Conv2D/fq_input_0" type="FakeQuantize" version="opset1">
			<data levels="256" auto_broadcast="numpy"/>
			<input>
				<port id="0">
					<dim>1</dim>
					<dim>64</dim>
					<dim>304</dim>
					<dim>304</dim>
				</port>
				<port id="1">
					<dim>1</dim>
					<dim>1</dim>
					<dim>1</dim>
					<dim>1</dim>
				</port>
				<port id="2">
					<dim>1</dim>
					<dim>1</dim>
					<dim>1</dim>
					<dim>1</dim>
				</port>
				<port id="3">
					<dim>1</dim>
					<dim>1</dim>
					<dim>1</dim>
					<dim>1</dim>
				</port>
				<port id="4">
					<dim>1</dim>
					<dim>1</dim>
					<dim>1</dim>
					<dim>1</dim>
				</port>
			</input>
			<output>
				<port id="5" precision="FP32">
					<dim>1</dim>
					<dim>64</dim>
					<dim>304</dim>
					<dim>304</dim>
				</port>
			</output>
		</layer>
		<layer id="226" name="StatefulPartitionedCall/model/batch_normalization_6/FusedBatchNormV3/mean/Fused_Mul__copy97412476/restored_convert/quantized1477722929" type="Const" version="opset1">
			<data offset="46756" size="4096" shape="64,64,1,1" element_type="i8"/>
			<output>
				<port id="0" precision="I8">
					<dim>64</dim>
					<dim>64</dim>
					<dim>1</dim>
					<dim>1</dim>
				</port>
			</output>
		</layer>
		<layer id="227" name="StatefulPartitionedCall/model/batch_normalization_6/FusedBatchNormV3/mean/Fused_Mul__copy97412476/restored_convert/quantized/to_f32" type="Convert" version="opset1">
			<data destination_type="f32"/>
			<input>
				<port id="0">
					<dim>64</dim>
					<dim>64</dim>
					<dim>1</dim>
					<dim>1</dim>
				</port>
			</input>
			<output>
				<port id="1" precision="FP32">
					<dim>64</dim>
					<dim>64</dim>
					<dim>1</dim>
					<dim>1</dim>
				</port>
			</output>
		</layer>
		<layer id="228" name="StatefulPartitionedCall/model/conv2d_6/Conv2D/fq_weights_1/zero_point1479623844" type="Const" version="opset1">
			<data offset="50852" size="256" shape="64,1,1,1" element_type="f32"/>
			<output>
				<port id="0" precision="FP32">
					<dim>64</dim>
					<dim>1</dim>
					<dim>1</dim>
					<dim>1</dim>
				</port>
			</output>
		</layer>
		<layer id="229" name="StatefulPartitionedCall/model/conv2d_6/Conv2D/fq_weights_1/minus_zp" type="Subtract" version="opset1">
			<data auto_broadcast="numpy"/>
			<input>
				<port id="0">
					<dim>64</dim>
					<dim>64</dim>
					<dim>1</dim>
					<dim>1</dim>
				</port>
				<port id="1">
					<dim>64</dim>
					<dim>1</dim>
					<dim>1</dim>
					<dim>1</dim>
				</port>
			</input>
			<output>
				<port id="2" precision="FP32">
					<dim>64</dim>
					<dim>64</dim>
					<dim>1</dim>
					<dim>1</dim>
				</port>
			</output>
		</layer>
		<layer id="230" name="StatefulPartitionedCall/model/conv2d_6/Conv2D/fq_weights_1/scale1478522512" type="Const" version="opset1">
			<data offset="51108" size="256" shape="64,1,1,1" element_type="f32"/>
			<output>
				<port id="0" precision="FP32">
					<dim>64</dim>
					<dim>1</dim>
					<dim>1</dim>
					<dim>1</dim>
				</port>
			</output>
		</layer>
		<layer id="231" name="StatefulPartitionedCall/model/conv2d_6/Conv2D/fq_weights_1/mulpiply_by_scale" type="Multiply" version="opset1">
			<data auto_broadcast="numpy"/>
			<input>
				<port id="0">
					<dim>64</dim>
					<dim>64</dim>
					<dim>1</dim>
					<dim>1</dim>
				</port>
				<port id="1">
					<dim>64</dim>
					<dim>1</dim>
					<dim>1</dim>
					<dim>1</dim>
				</port>
			</input>
			<output>
				<port id="2" precision="FP32">
					<dim>64</dim>
					<dim>64</dim>
					<dim>1</dim>
					<dim>1</dim>
				</port>
			</output>
		</layer>
		<layer id="232" name="StatefulPartitionedCall/model/conv2d_6/Conv2D" type="Convolution" version="opset1">
			<data auto_pad="same_upper" strides="1,1" dilations="1,1" pads_begin="0,0" pads_end="0,0"/>
			<rt_info>
				<attribute name="fused_names" version="0" value="StatefulPartitionedCall/model/conv2d_6/Conv2D"/>
			</rt_info>
			<input>
				<port id="0">
					<dim>1</dim>
					<dim>64</dim>
					<dim>304</dim>
					<dim>304</dim>
				</port>
				<port id="1">
					<dim>64</dim>
					<dim>64</dim>
					<dim>1</dim>
					<dim>1</dim>
				</port>
			</input>
			<output>
				<port id="2" precision="FP32">
					<dim>1</dim>
					<dim>64</dim>
					<dim>304</dim>
					<dim>304</dim>
				</port>
			</output>
		</layer>
		<layer id="233" name="data_add_218892189497723127" type="Const" version="opset1">
			<data offset="51364" size="128" shape="1,64,1,1" element_type="f16"/>
			<output>
				<port id="0" precision="FP16">
					<dim>1</dim>
					<dim>64</dim>
					<dim>1</dim>
					<dim>1</dim>
				</port>
			</output>
		</layer>
		<layer id="234" name="data_add_218892189497712477/restored_convert" type="Convert" version="opset1">
			<data destination_type="f32"/>
			<rt_info>
				<attribute name="decompression" version="0"/>
				<attribute name="fused_names" version="0" value="data_add_2188921894"/>
			</rt_info>
			<input>
				<port id="0">
					<dim>1</dim>
					<dim>64</dim>
					<dim>1</dim>
					<dim>1</dim>
				</port>
			</input>
			<output>
				<port id="1" precision="FP32">
					<dim>1</dim>
					<dim>64</dim>
					<dim>1</dim>
					<dim>1</dim>
				</port>
			</output>
		</layer>
		<layer id="235" name="StatefulPartitionedCall/model/batch_normalization_6/FusedBatchNormV3/variance/Fused_Add_" type="Add" version="opset1">
			<data auto_broadcast="numpy"/>
			<rt_info>
				<attribute name="fused_names" version="0" value="StatefulPartitionedCall/model/batch_normalization_6/FusedBatchNormV3/variance/Fused_Add_"/>
			</rt_info>
			<input>
				<port id="0">
					<dim>1</dim>
					<dim>64</dim>
					<dim>304</dim>
					<dim>304</dim>
				</port>
				<port id="1">
					<dim>1</dim>
					<dim>64</dim>
					<dim>1</dim>
					<dim>1</dim>
				</port>
			</input>
			<output>
				<port id="2" precision="FP32" names="StatefulPartitionedCall/model/batch_normalization_6/FusedBatchNormV3:0">
					<dim>1</dim>
					<dim>64</dim>
					<dim>304</dim>
					<dim>304</dim>
				</port>
			</output>
		</layer>
		<layer id="236" name="StatefulPartitionedCall/model/activation_6/mul" type="Mish" version="opset4">
			<rt_info>
				<attribute name="fused_names" version="0" value="StatefulPartitionedCall/model/activation_6/Softplus, StatefulPartitionedCall/model/activation_6/Tanh, StatefulPartitionedCall/model/activation_6/mul"/>
			</rt_info>
			<input>
				<port id="0">
					<dim>1</dim>
					<dim>64</dim>
					<dim>304</dim>
					<dim>304</dim>
				</port>
			</input>
			<output>
				<port id="1" precision="FP32" names="StatefulPartitionedCall/model/activation_6/mul:0">
					<dim>1</dim>
					<dim>64</dim>
					<dim>304</dim>
					<dim>304</dim>
				</port>
			</output>
		</layer>
		<layer id="237" name="StatefulPartitionedCall/model/concatenate/concat/fq_input_0" type="FakeQuantize" version="opset1">
			<data levels="256" auto_broadcast="numpy"/>
			<input>
				<port id="0">
					<dim>1</dim>
					<dim>64</dim>
					<dim>304</dim>
					<dim>304</dim>
				</port>
				<port id="1">
					<dim>1</dim>
					<dim>1</dim>
					<dim>1</dim>
					<dim>1</dim>
				</port>
				<port id="2">
					<dim>1</dim>
					<dim>1</dim>
					<dim>1</dim>
					<dim>1</dim>
				</port>
				<port id="3">
					<dim>1</dim>
					<dim>1</dim>
					<dim>1</dim>
					<dim>1</dim>
				</port>
				<port id="4">
					<dim>1</dim>
					<dim>1</dim>
					<dim>1</dim>
					<dim>1</dim>
				</port>
			</input>
			<output>
				<port id="5" precision="FP32">
					<dim>1</dim>
					<dim>64</dim>
					<dim>304</dim>
					<dim>304</dim>
				</port>
			</output>
		</layer>
		<layer id="238" name="7138714222158" type="Const" version="opset1">
			<data offset="248" size="4" shape="1,1,1,1" element_type="f32"/>
			<output>
				<port id="0" precision="FP32">
					<dim>1</dim>
					<dim>1</dim>
					<dim>1</dim>
					<dim>1</dim>
				</port>
			</output>
		</layer>
		<layer id="239" name="7139714323991" type="Const" version="opset1">
			<data offset="252" size="4" shape="1,1,1,1" element_type="f32"/>
			<output>
				<port id="0" precision="FP32">
					<dim>1</dim>
					<dim>1</dim>
					<dim>1</dim>
					<dim>1</dim>
				</port>
			</output>
		</layer>
		<layer id="240" name="7140714422875" type="Const" version="opset1">
			<data offset="248" size="4" shape="1,1,1,1" element_type="f32"/>
			<output>
				<port id="0" precision="FP32">
					<dim>1</dim>
					<dim>1</dim>
					<dim>1</dim>
					<dim>1</dim>
				</port>
			</output>
		</layer>
		<layer id="241" name="7141714523340" type="Const" version="opset1">
			<data offset="252" size="4" shape="1,1,1,1" element_type="f32"/>
			<output>
				<port id="0" precision="FP32">
					<dim>1</dim>
					<dim>1</dim>
					<dim>1</dim>
					<dim>1</dim>
				</port>
			</output>
		</layer>
		<layer id="242" name="StatefulPartitionedCall/model/batch_normalization_2/FusedBatchNormV3/mean/Fused_Mul__copy98112478/restored_convert/quantized1579724729" type="Const" version="opset1">
			<data offset="51492" size="4096" shape="64,64,1,1" element_type="i8"/>
			<output>
				<port id="0" precision="I8">
					<dim>64</dim>
					<dim>64</dim>
					<dim>1</dim>
					<dim>1</dim>
				</port>
			</output>
		</layer>
		<layer id="243" name="StatefulPartitionedCall/model/batch_normalization_2/FusedBatchNormV3/mean/Fused_Mul__copy98112478/restored_convert/quantized/to_f32" type="Convert" version="opset1">
			<data destination_type="f32"/>
			<input>
				<port id="0">
					<dim>64</dim>
					<dim>64</dim>
					<dim>1</dim>
					<dim>1</dim>
				</port>
			</input>
			<output>
				<port id="1" precision="FP32">
					<dim>64</dim>
					<dim>64</dim>
					<dim>1</dim>
					<dim>1</dim>
				</port>
			</output>
		</layer>
		<layer id="244" name="StatefulPartitionedCall/model/conv2d_2/Conv2D/fq_weights_1/zero_point1581621978" type="Const" version="opset1">
			<data offset="55588" size="256" shape="64,1,1,1" element_type="f32"/>
			<output>
				<port id="0" precision="FP32">
					<dim>64</dim>
					<dim>1</dim>
					<dim>1</dim>
					<dim>1</dim>
				</port>
			</output>
		</layer>
		<layer id="245" name="StatefulPartitionedCall/model/conv2d_2/Conv2D/fq_weights_1/minus_zp" type="Subtract" version="opset1">
			<data auto_broadcast="numpy"/>
			<input>
				<port id="0">
					<dim>64</dim>
					<dim>64</dim>
					<dim>1</dim>
					<dim>1</dim>
				</port>
				<port id="1">
					<dim>64</dim>
					<dim>1</dim>
					<dim>1</dim>
					<dim>1</dim>
				</port>
			</input>
			<output>
				<port id="2" precision="FP32">
					<dim>64</dim>
					<dim>64</dim>
					<dim>1</dim>
					<dim>1</dim>
				</port>
			</output>
		</layer>
		<layer id="246" name="StatefulPartitionedCall/model/conv2d_2/Conv2D/fq_weights_1/scale1580524414" type="Const" version="opset1">
			<data offset="55844" size="256" shape="64,1,1,1" element_type="f32"/>
			<output>
				<port id="0" precision="FP32">
					<dim>64</dim>
					<dim>1</dim>
					<dim>1</dim>
					<dim>1</dim>
				</port>
			</output>
		</layer>
		<layer id="247" name="StatefulPartitionedCall/model/conv2d_2/Conv2D/fq_weights_1/mulpiply_by_scale" type="Multiply" version="opset1">
			<data auto_broadcast="numpy"/>
			<input>
				<port id="0">
					<dim>64</dim>
					<dim>64</dim>
					<dim>1</dim>
					<dim>1</dim>
				</port>
				<port id="1">
					<dim>64</dim>
					<dim>1</dim>
					<dim>1</dim>
					<dim>1</dim>
				</port>
			</input>
			<output>
				<port id="2" precision="FP32">
					<dim>64</dim>
					<dim>64</dim>
					<dim>1</dim>
					<dim>1</dim>
				</port>
			</output>
		</layer>
		<layer id="248" name="StatefulPartitionedCall/model/conv2d_2/Conv2D" type="Convolution" version="opset1">
			<data auto_pad="same_upper" strides="1,1" dilations="1,1" pads_begin="0,0" pads_end="0,0"/>
			<rt_info>
				<attribute name="fused_names" version="0" value="StatefulPartitionedCall/model/conv2d_2/Conv2D"/>
			</rt_info>
			<input>
				<port id="0">
					<dim>1</dim>
					<dim>64</dim>
					<dim>304</dim>
					<dim>304</dim>
				</port>
				<port id="1">
					<dim>64</dim>
					<dim>64</dim>
					<dim>1</dim>
					<dim>1</dim>
				</port>
			</input>
			<output>
				<port id="2" precision="FP32">
					<dim>1</dim>
					<dim>64</dim>
					<dim>304</dim>
					<dim>304</dim>
				</port>
			</output>
		</layer>
		<layer id="249" name="data_add_218572186298424537" type="Const" version="opset1">
			<data offset="56100" size="128" shape="1,64,1,1" element_type="f16"/>
			<output>
				<port id="0" precision="FP16">
					<dim>1</dim>
					<dim>64</dim>
					<dim>1</dim>
					<dim>1</dim>
				</port>
			</output>
		</layer>
		<layer id="250" name="data_add_218572186298412479/restored_convert" type="Convert" version="opset1">
			<data destination_type="f32"/>
			<rt_info>
				<attribute name="decompression" version="0"/>
				<attribute name="fused_names" version="0" value="data_add_2185721862"/>
			</rt_info>
			<input>
				<port id="0">
					<dim>1</dim>
					<dim>64</dim>
					<dim>1</dim>
					<dim>1</dim>
				</port>
			</input>
			<output>
				<port id="1" precision="FP32">
					<dim>1</dim>
					<dim>64</dim>
					<dim>1</dim>
					<dim>1</dim>
				</port>
			</output>
		</layer>
		<layer id="251" name="StatefulPartitionedCall/model/batch_normalization_2/FusedBatchNormV3/variance/Fused_Add_" type="Add" version="opset1">
			<data auto_broadcast="numpy"/>
			<rt_info>
				<attribute name="fused_names" version="0" value="StatefulPartitionedCall/model/batch_normalization_2/FusedBatchNormV3/variance/Fused_Add_"/>
			</rt_info>
			<input>
				<port id="0">
					<dim>1</dim>
					<dim>64</dim>
					<dim>304</dim>
					<dim>304</dim>
				</port>
				<port id="1">
					<dim>1</dim>
					<dim>64</dim>
					<dim>1</dim>
					<dim>1</dim>
				</port>
			</input>
			<output>
				<port id="2" precision="FP32" names="StatefulPartitionedCall/model/batch_normalization_2/FusedBatchNormV3:0">
					<dim>1</dim>
					<dim>64</dim>
					<dim>304</dim>
					<dim>304</dim>
				</port>
			</output>
		</layer>
		<layer id="252" name="StatefulPartitionedCall/model/activation_2/mul" type="Mish" version="opset4">
			<rt_info>
				<attribute name="fused_names" version="0" value="StatefulPartitionedCall/model/activation_2/Softplus, StatefulPartitionedCall/model/activation_2/Tanh, StatefulPartitionedCall/model/activation_2/mul"/>
			</rt_info>
			<input>
				<port id="0">
					<dim>1</dim>
					<dim>64</dim>
					<dim>304</dim>
					<dim>304</dim>
				</port>
			</input>
			<output>
				<port id="1" precision="FP32" names="StatefulPartitionedCall/model/activation_2/mul:0">
					<dim>1</dim>
					<dim>64</dim>
					<dim>304</dim>
					<dim>304</dim>
				</port>
			</output>
		</layer>
		<layer id="253" name="StatefulPartitionedCall/model/concatenate/concat/fq_input_1" type="FakeQuantize" version="opset1">
			<data levels="256" auto_broadcast="numpy"/>
			<input>
				<port id="0">
					<dim>1</dim>
					<dim>64</dim>
					<dim>304</dim>
					<dim>304</dim>
				</port>
				<port id="1">
					<dim>1</dim>
					<dim>1</dim>
					<dim>1</dim>
					<dim>1</dim>
				</port>
				<port id="2">
					<dim>1</dim>
					<dim>1</dim>
					<dim>1</dim>
					<dim>1</dim>
				</port>
				<port id="3">
					<dim>1</dim>
					<dim>1</dim>
					<dim>1</dim>
					<dim>1</dim>
				</port>
				<port id="4">
					<dim>1</dim>
					<dim>1</dim>
					<dim>1</dim>
					<dim>1</dim>
				</port>
			</input>
			<output>
				<port id="5" precision="FP32">
					<dim>1</dim>
					<dim>64</dim>
					<dim>304</dim>
					<dim>304</dim>
				</port>
			</output>
		</layer>
		<layer id="254" name="StatefulPartitionedCall/model/concatenate/concat" type="Concat" version="opset1">
			<data axis="1"/>
			<rt_info>
				<attribute name="fused_names" version="0" value="StatefulPartitionedCall/model/concatenate/concat"/>
			</rt_info>
			<input>
				<port id="0">
					<dim>1</dim>
					<dim>64</dim>
					<dim>304</dim>
					<dim>304</dim>
				</port>
				<port id="1">
					<dim>1</dim>
					<dim>64</dim>
					<dim>304</dim>
					<dim>304</dim>
				</port>
			</input>
			<output>
				<port id="2" precision="FP32" names="StatefulPartitionedCall/model/concatenate/concat:0">
					<dim>1</dim>
					<dim>128</dim>
					<dim>304</dim>
					<dim>304</dim>
				</port>
			</output>
		</layer>
		<layer id="255" name="StatefulPartitionedCall/model/batch_normalization_7/FusedBatchNormV3/mean/Fused_Mul__copy98912480/restored_convert/quantized1615722257" type="Const" version="opset1">
			<data offset="56228" size="8192" shape="64,128,1,1" element_type="i8"/>
			<output>
				<port id="0" precision="I8">
					<dim>64</dim>
					<dim>128</dim>
					<dim>1</dim>
					<dim>1</dim>
				</port>
			</output>
		</layer>
		<layer id="256" name="StatefulPartitionedCall/model/batch_normalization_7/FusedBatchNormV3/mean/Fused_Mul__copy98912480/restored_convert/quantized/to_f32" type="Convert" version="opset1">
			<data destination_type="f32"/>
			<input>
				<port id="0">
					<dim>64</dim>
					<dim>128</dim>
					<dim>1</dim>
					<dim>1</dim>
				</port>
			</input>
			<output>
				<port id="1" precision="FP32">
					<dim>64</dim>
					<dim>128</dim>
					<dim>1</dim>
					<dim>1</dim>
				</port>
			</output>
		</layer>
		<layer id="257" name="StatefulPartitionedCall/model/conv2d_7/Conv2D/fq_weights_1/zero_point1617624891" type="Const" version="opset1">
			<data offset="64420" size="256" shape="64,1,1,1" element_type="f32"/>
			<output>
				<port id="0" precision="FP32">
					<dim>64</dim>
					<dim>1</dim>
					<dim>1</dim>
					<dim>1</dim>
				</port>
			</output>
		</layer>
		<layer id="258" name="StatefulPartitionedCall/model/conv2d_7/Conv2D/fq_weights_1/minus_zp" type="Subtract" version="opset1">
			<data auto_broadcast="numpy"/>
			<input>
				<port id="0">
					<dim>64</dim>
					<dim>128</dim>
					<dim>1</dim>
					<dim>1</dim>
				</port>
				<port id="1">
					<dim>64</dim>
					<dim>1</dim>
					<dim>1</dim>
					<dim>1</dim>
				</port>
			</input>
			<output>
				<port id="2" precision="FP32">
					<dim>64</dim>
					<dim>128</dim>
					<dim>1</dim>
					<dim>1</dim>
				</port>
			</output>
		</layer>
		<layer id="259" name="StatefulPartitionedCall/model/conv2d_7/Conv2D/fq_weights_1/scale1616524513" type="Const" version="opset1">
			<data offset="64676" size="256" shape="64,1,1,1" element_type="f32"/>
			<output>
				<port id="0" precision="FP32">
					<dim>64</dim>
					<dim>1</dim>
					<dim>1</dim>
					<dim>1</dim>
				</port>
			</output>
		</layer>
		<layer id="260" name="StatefulPartitionedCall/model/conv2d_7/Conv2D/fq_weights_1/mulpiply_by_scale" type="Multiply" version="opset1">
			<data auto_broadcast="numpy"/>
			<input>
				<port id="0">
					<dim>64</dim>
					<dim>128</dim>
					<dim>1</dim>
					<dim>1</dim>
				</port>
				<port id="1">
					<dim>64</dim>
					<dim>1</dim>
					<dim>1</dim>
					<dim>1</dim>
				</port>
			</input>
			<output>
				<port id="2" precision="FP32">
					<dim>64</dim>
					<dim>128</dim>
					<dim>1</dim>
					<dim>1</dim>
				</port>
			</output>
		</layer>
		<layer id="261" name="StatefulPartitionedCall/model/conv2d_7/Conv2D" type="Convolution" version="opset1">
			<data auto_pad="same_upper" strides="1,1" dilations="1,1" pads_begin="0,0" pads_end="0,0"/>
			<rt_info>
				<attribute name="fused_names" version="0" value="StatefulPartitionedCall/model/conv2d_7/Conv2D"/>
			</rt_info>
			<input>
				<port id="0">
					<dim>1</dim>
					<dim>128</dim>
					<dim>304</dim>
					<dim>304</dim>
				</port>
				<port id="1">
					<dim>64</dim>
					<dim>128</dim>
					<dim>1</dim>
					<dim>1</dim>
				</port>
			</input>
			<output>
				<port id="2" precision="FP32">
					<dim>1</dim>
					<dim>64</dim>
					<dim>304</dim>
					<dim>304</dim>
				</port>
			</output>
		</layer>
		<layer id="262" name="data_add_218972190299224633" type="Const" version="opset1">
			<data offset="64932" size="128" shape="1,64,1,1" element_type="f16"/>
			<output>
				<port id="0" precision="FP16">
					<dim>1</dim>
					<dim>64</dim>
					<dim>1</dim>
					<dim>1</dim>
				</port>
			</output>
		</layer>
		<layer id="263" name="data_add_218972190299212481/restored_convert" type="Convert" version="opset1">
			<data destination_type="f32"/>
			<rt_info>
				<attribute name="decompression" version="0"/>
				<attribute name="fused_names" version="0" value="data_add_2189721902"/>
			</rt_info>
			<input>
				<port id="0">
					<dim>1</dim>
					<dim>64</dim>
					<dim>1</dim>
					<dim>1</dim>
				</port>
			</input>
			<output>
				<port id="1" precision="FP32">
					<dim>1</dim>
					<dim>64</dim>
					<dim>1</dim>
					<dim>1</dim>
				</port>
			</output>
		</layer>
		<layer id="264" name="StatefulPartitionedCall/model/batch_normalization_7/FusedBatchNormV3/variance/Fused_Add_" type="Add" version="opset1">
			<data auto_broadcast="numpy"/>
			<rt_info>
				<attribute name="fused_names" version="0" value="StatefulPartitionedCall/model/batch_normalization_7/FusedBatchNormV3/variance/Fused_Add_"/>
			</rt_info>
			<input>
				<port id="0">
					<dim>1</dim>
					<dim>64</dim>
					<dim>304</dim>
					<dim>304</dim>
				</port>
				<port id="1">
					<dim>1</dim>
					<dim>64</dim>
					<dim>1</dim>
					<dim>1</dim>
				</port>
			</input>
			<output>
				<port id="2" precision="FP32" names="StatefulPartitionedCall/model/batch_normalization_7/FusedBatchNormV3:0">
					<dim>1</dim>
					<dim>64</dim>
					<dim>304</dim>
					<dim>304</dim>
				</port>
			</output>
		</layer>
		<layer id="265" name="StatefulPartitionedCall/model/activation_7/mul" type="Mish" version="opset4">
			<rt_info>
				<attribute name="fused_names" version="0" value="StatefulPartitionedCall/model/activation_7/Softplus, StatefulPartitionedCall/model/activation_7/Tanh, StatefulPartitionedCall/model/activation_7/mul"/>
			</rt_info>
			<input>
				<port id="0">
					<dim>1</dim>
					<dim>64</dim>
					<dim>304</dim>
					<dim>304</dim>
				</port>
			</input>
			<output>
				<port id="1" precision="FP32" names="StatefulPartitionedCall/model/activation_7/mul:0">
					<dim>1</dim>
					<dim>64</dim>
					<dim>304</dim>
					<dim>304</dim>
				</port>
			</output>
		</layer>
		<layer id="266" name="StatefulPartitionedCall/model/conv2d_8/Conv2D/fq_input_0" type="FakeQuantize" version="opset1">
			<data levels="256" auto_broadcast="numpy"/>
			<input>
				<port id="0">
					<dim>1</dim>
					<dim>64</dim>
					<dim>304</dim>
					<dim>304</dim>
				</port>
				<port id="1">
					<dim>1</dim>
					<dim>1</dim>
					<dim>1</dim>
					<dim>1</dim>
				</port>
				<port id="2">
					<dim>1</dim>
					<dim>1</dim>
					<dim>1</dim>
					<dim>1</dim>
				</port>
				<port id="3">
					<dim>1</dim>
					<dim>1</dim>
					<dim>1</dim>
					<dim>1</dim>
				</port>
				<port id="4">
					<dim>1</dim>
					<dim>1</dim>
					<dim>1</dim>
					<dim>1</dim>
				</port>
			</input>
			<output>
				<port id="5" precision="FP32">
					<dim>1</dim>
					<dim>64</dim>
					<dim>304</dim>
					<dim>304</dim>
				</port>
			</output>
		</layer>
		<layer id="267" name="StatefulPartitionedCall/model/batch_normalization_8/FusedBatchNormV3/mean/Fused_Mul__copy99612482/restored_convert/quantized1702724750" type="Const" version="opset1">
			<data offset="65060" size="73728" shape="128,64,3,3" element_type="i8"/>
			<output>
				<port id="0" precision="I8">
					<dim>128</dim>
					<dim>64</dim>
					<dim>3</dim>
					<dim>3</dim>
				</port>
			</output>
		</layer>
		<layer id="268" name="StatefulPartitionedCall/model/batch_normalization_8/FusedBatchNormV3/mean/Fused_Mul__copy99612482/restored_convert/quantized/to_f32" type="Convert" version="opset1">
			<data destination_type="f32"/>
			<input>
				<port id="0">
					<dim>128</dim>
					<dim>64</dim>
					<dim>3</dim>
					<dim>3</dim>
				</port>
			</input>
			<output>
				<port id="1" precision="FP32">
					<dim>128</dim>
					<dim>64</dim>
					<dim>3</dim>
					<dim>3</dim>
				</port>
			</output>
		</layer>
		<layer id="269" name="StatefulPartitionedCall/model/conv2d_8/Conv2D/fq_weights_1/zero_point1704622020" type="Const" version="opset1">
			<data offset="138788" size="512" shape="128,1,1,1" element_type="f32"/>
			<output>
				<port id="0" precision="FP32">
					<dim>128</dim>
					<dim>1</dim>
					<dim>1</dim>
					<dim>1</dim>
				</port>
			</output>
		</layer>
		<layer id="270" name="StatefulPartitionedCall/model/conv2d_8/Conv2D/fq_weights_1/minus_zp" type="Subtract" version="opset1">
			<data auto_broadcast="numpy"/>
			<input>
				<port id="0">
					<dim>128</dim>
					<dim>64</dim>
					<dim>3</dim>
					<dim>3</dim>
				</port>
				<port id="1">
					<dim>128</dim>
					<dim>1</dim>
					<dim>1</dim>
					<dim>1</dim>
				</port>
			</input>
			<output>
				<port id="2" precision="FP32">
					<dim>128</dim>
					<dim>64</dim>
					<dim>3</dim>
					<dim>3</dim>
				</port>
			</output>
		</layer>
		<layer id="271" name="StatefulPartitionedCall/model/conv2d_8/Conv2D/fq_weights_1/scale1703523622" type="Const" version="opset1">
			<data offset="139300" size="512" shape="128,1,1,1" element_type="f32"/>
			<output>
				<port id="0" precision="FP32">
					<dim>128</dim>
					<dim>1</dim>
					<dim>1</dim>
					<dim>1</dim>
				</port>
			</output>
		</layer>
		<layer id="272" name="StatefulPartitionedCall/model/conv2d_8/Conv2D/fq_weights_1/mulpiply_by_scale" type="Multiply" version="opset1">
			<data auto_broadcast="numpy"/>
			<input>
				<port id="0">
					<dim>128</dim>
					<dim>64</dim>
					<dim>3</dim>
					<dim>3</dim>
				</port>
				<port id="1">
					<dim>128</dim>
					<dim>1</dim>
					<dim>1</dim>
					<dim>1</dim>
				</port>
			</input>
			<output>
				<port id="2" precision="FP32">
					<dim>128</dim>
					<dim>64</dim>
					<dim>3</dim>
					<dim>3</dim>
				</port>
			</output>
		</layer>
		<layer id="273" name="StatefulPartitionedCall/model/conv2d_8/Conv2D" type="Convolution" version="opset1">
			<data auto_pad="explicit" strides="2,2" dilations="1,1" pads_begin="1,1" pads_end="0,0"/>
			<rt_info>
				<attribute name="fused_names" version="0" value="StatefulPartitionedCall/model/conv2d_8/Conv2D, StatefulPartitionedCall/model/zero_padding2d_1/Pad"/>
			</rt_info>
			<input>
				<port id="0">
					<dim>1</dim>
					<dim>64</dim>
					<dim>304</dim>
					<dim>304</dim>
				</port>
				<port id="1">
					<dim>128</dim>
					<dim>64</dim>
					<dim>3</dim>
					<dim>3</dim>
				</port>
			</input>
			<output>
				<port id="2" precision="FP32">
					<dim>1</dim>
					<dim>128</dim>
					<dim>152</dim>
					<dim>152</dim>
				</port>
			</output>
		</layer>
		<layer id="274" name="data_add_219052191099922014" type="Const" version="opset1">
			<data offset="139812" size="256" shape="1,128,1,1" element_type="f16"/>
			<output>
				<port id="0" precision="FP16">
					<dim>1</dim>
					<dim>128</dim>
					<dim>1</dim>
					<dim>1</dim>
				</port>
			</output>
		</layer>
		<layer id="275" name="data_add_219052191099912483/restored_convert" type="Convert" version="opset1">
			<data destination_type="f32"/>
			<rt_info>
				<attribute name="decompression" version="0"/>
				<attribute name="fused_names" version="0" value="data_add_2190521910"/>
			</rt_info>
			<input>
				<port id="0">
					<dim>1</dim>
					<dim>128</dim>
					<dim>1</dim>
					<dim>1</dim>
				</port>
			</input>
			<output>
				<port id="1" precision="FP32">
					<dim>1</dim>
					<dim>128</dim>
					<dim>1</dim>
					<dim>1</dim>
				</port>
			</output>
		</layer>
		<layer id="276" name="StatefulPartitionedCall/model/batch_normalization_8/FusedBatchNormV3/variance/Fused_Add_" type="Add" version="opset1">
			<data auto_broadcast="numpy"/>
			<rt_info>
				<attribute name="fused_names" version="0" value="StatefulPartitionedCall/model/batch_normalization_8/FusedBatchNormV3/variance/Fused_Add_"/>
			</rt_info>
			<input>
				<port id="0">
					<dim>1</dim>
					<dim>128</dim>
					<dim>152</dim>
					<dim>152</dim>
				</port>
				<port id="1">
					<dim>1</dim>
					<dim>128</dim>
					<dim>1</dim>
					<dim>1</dim>
				</port>
			</input>
			<output>
				<port id="2" precision="FP32" names="StatefulPartitionedCall/model/batch_normalization_8/FusedBatchNormV3:0">
					<dim>1</dim>
					<dim>128</dim>
					<dim>152</dim>
					<dim>152</dim>
				</port>
			</output>
		</layer>
		<layer id="277" name="StatefulPartitionedCall/model/activation_8/mul" type="Mish" version="opset4">
			<rt_info>
				<attribute name="fused_names" version="0" value="StatefulPartitionedCall/model/activation_8/Softplus, StatefulPartitionedCall/model/activation_8/Tanh, StatefulPartitionedCall/model/activation_8/mul"/>
			</rt_info>
			<input>
				<port id="0">
					<dim>1</dim>
					<dim>128</dim>
					<dim>152</dim>
					<dim>152</dim>
				</port>
			</input>
			<output>
				<port id="1" precision="FP32" names="StatefulPartitionedCall/model/activation_8/mul:0">
					<dim>1</dim>
					<dim>128</dim>
					<dim>152</dim>
					<dim>152</dim>
				</port>
			</output>
		</layer>
		<layer id="278" name="StatefulPartitionedCall/model/conv2d_10/Conv2D/fq_input_0" type="FakeQuantize" version="opset1">
			<data levels="256" auto_broadcast="numpy"/>
			<input>
				<port id="0">
					<dim>1</dim>
					<dim>128</dim>
					<dim>152</dim>
					<dim>152</dim>
				</port>
				<port id="1">
					<dim>1</dim>
					<dim>1</dim>
					<dim>1</dim>
					<dim>1</dim>
				</port>
				<port id="2">
					<dim>1</dim>
					<dim>1</dim>
					<dim>1</dim>
					<dim>1</dim>
				</port>
				<port id="3">
					<dim>1</dim>
					<dim>1</dim>
					<dim>1</dim>
					<dim>1</dim>
				</port>
				<port id="4">
					<dim>1</dim>
					<dim>1</dim>
					<dim>1</dim>
					<dim>1</dim>
				</port>
			</input>
			<output>
				<port id="5" precision="FP32">
					<dim>1</dim>
					<dim>128</dim>
					<dim>152</dim>
					<dim>152</dim>
				</port>
			</output>
		</layer>
		<layer id="279" name="StatefulPartitionedCall/model/batch_normalization_10/FusedBatchNormV3/mean/Fused_Mul__copy100312484/restored_convert/quantized1747723790" type="Const" version="opset1">
			<data offset="140068" size="8192" shape="64,128,1,1" element_type="i8"/>
			<output>
				<port id="0" precision="I8">
					<dim>64</dim>
					<dim>128</dim>
					<dim>1</dim>
					<dim>1</dim>
				</port>
			</output>
		</layer>
		<layer id="280" name="StatefulPartitionedCall/model/batch_normalization_10/FusedBatchNormV3/mean/Fused_Mul__copy100312484/restored_convert/quantized/to_f32" type="Convert" version="opset1">
			<data destination_type="f32"/>
			<input>
				<port id="0">
					<dim>64</dim>
					<dim>128</dim>
					<dim>1</dim>
					<dim>1</dim>
				</port>
			</input>
			<output>
				<port id="1" precision="FP32">
					<dim>64</dim>
					<dim>128</dim>
					<dim>1</dim>
					<dim>1</dim>
				</port>
			</output>
		</layer>
		<layer id="281" name="StatefulPartitionedCall/model/conv2d_10/Conv2D/fq_weights_1/zero_point1749623934" type="Const" version="opset1">
			<data offset="148260" size="256" shape="64,1,1,1" element_type="f32"/>
			<output>
				<port id="0" precision="FP32">
					<dim>64</dim>
					<dim>1</dim>
					<dim>1</dim>
					<dim>1</dim>
				</port>
			</output>
		</layer>
		<layer id="282" name="StatefulPartitionedCall/model/conv2d_10/Conv2D/fq_weights_1/minus_zp" type="Subtract" version="opset1">
			<data auto_broadcast="numpy"/>
			<input>
				<port id="0">
					<dim>64</dim>
					<dim>128</dim>
					<dim>1</dim>
					<dim>1</dim>
				</port>
				<port id="1">
					<dim>64</dim>
					<dim>1</dim>
					<dim>1</dim>
					<dim>1</dim>
				</port>
			</input>
			<output>
				<port id="2" precision="FP32">
					<dim>64</dim>
					<dim>128</dim>
					<dim>1</dim>
					<dim>1</dim>
				</port>
			</output>
		</layer>
		<layer id="283" name="StatefulPartitionedCall/model/conv2d_10/Conv2D/fq_weights_1/scale1748524171" type="Const" version="opset1">
			<data offset="148516" size="256" shape="64,1,1,1" element_type="f32"/>
			<output>
				<port id="0" precision="FP32">
					<dim>64</dim>
					<dim>1</dim>
					<dim>1</dim>
					<dim>1</dim>
				</port>
			</output>
		</layer>
		<layer id="284" name="StatefulPartitionedCall/model/conv2d_10/Conv2D/fq_weights_1/mulpiply_by_scale" type="Multiply" version="opset1">
			<data auto_broadcast="numpy"/>
			<input>
				<port id="0">
					<dim>64</dim>
					<dim>128</dim>
					<dim>1</dim>
					<dim>1</dim>
				</port>
				<port id="1">
					<dim>64</dim>
					<dim>1</dim>
					<dim>1</dim>
					<dim>1</dim>
				</port>
			</input>
			<output>
				<port id="2" precision="FP32">
					<dim>64</dim>
					<dim>128</dim>
					<dim>1</dim>
					<dim>1</dim>
				</port>
			</output>
		</layer>
		<layer id="285" name="StatefulPartitionedCall/model/conv2d_10/Conv2D" type="Convolution" version="opset1">
			<data auto_pad="same_upper" strides="1,1" dilations="1,1" pads_begin="0,0" pads_end="0,0"/>
			<rt_info>
				<attribute name="fused_names" version="0" value="StatefulPartitionedCall/model/conv2d_10/Conv2D"/>
			</rt_info>
			<input>
				<port id="0">
					<dim>1</dim>
					<dim>128</dim>
					<dim>152</dim>
					<dim>152</dim>
				</port>
				<port id="1">
					<dim>64</dim>
					<dim>128</dim>
					<dim>1</dim>
					<dim>1</dim>
				</port>
			</input>
			<output>
				<port id="2" precision="FP32">
					<dim>1</dim>
					<dim>64</dim>
					<dim>152</dim>
					<dim>152</dim>
				</port>
			</output>
		</layer>
		<layer id="286" name="data_add_2192121926100624834" type="Const" version="opset1">
			<data offset="148772" size="128" shape="1,64,1,1" element_type="f16"/>
			<output>
				<port id="0" precision="FP16">
					<dim>1</dim>
					<dim>64</dim>
					<dim>1</dim>
					<dim>1</dim>
				</port>
			</output>
		</layer>
		<layer id="287" name="data_add_2192121926100612485/restored_convert" type="Convert" version="opset1">
			<data destination_type="f32"/>
			<rt_info>
				<attribute name="decompression" version="0"/>
				<attribute name="fused_names" version="0" value="data_add_2192121926"/>
			</rt_info>
			<input>
				<port id="0">
					<dim>1</dim>
					<dim>64</dim>
					<dim>1</dim>
					<dim>1</dim>
				</port>
			</input>
			<output>
				<port id="1" precision="FP32">
					<dim>1</dim>
					<dim>64</dim>
					<dim>1</dim>
					<dim>1</dim>
				</port>
			</output>
		</layer>
		<layer id="288" name="StatefulPartitionedCall/model/batch_normalization_10/FusedBatchNormV3/variance/Fused_Add_" type="Add" version="opset1">
			<data auto_broadcast="numpy"/>
			<rt_info>
				<attribute name="fused_names" version="0" value="StatefulPartitionedCall/model/batch_normalization_10/FusedBatchNormV3/variance/Fused_Add_"/>
			</rt_info>
			<input>
				<port id="0">
					<dim>1</dim>
					<dim>64</dim>
					<dim>152</dim>
					<dim>152</dim>
				</port>
				<port id="1">
					<dim>1</dim>
					<dim>64</dim>
					<dim>1</dim>
					<dim>1</dim>
				</port>
			</input>
			<output>
				<port id="2" precision="FP32" names="StatefulPartitionedCall/model/batch_normalization_10/FusedBatchNormV3:0">
					<dim>1</dim>
					<dim>64</dim>
					<dim>152</dim>
					<dim>152</dim>
				</port>
			</output>
		</layer>
		<layer id="289" name="StatefulPartitionedCall/model/activation_10/mul" type="Mish" version="opset4">
			<rt_info>
				<attribute name="fused_names" version="0" value="StatefulPartitionedCall/model/activation_10/Softplus, StatefulPartitionedCall/model/activation_10/Tanh, StatefulPartitionedCall/model/activation_10/mul"/>
			</rt_info>
			<input>
				<port id="0">
					<dim>1</dim>
					<dim>64</dim>
					<dim>152</dim>
					<dim>152</dim>
				</port>
			</input>
			<output>
				<port id="1" precision="FP32" names="StatefulPartitionedCall/model/activation_10/mul:0">
					<dim>1</dim>
					<dim>64</dim>
					<dim>152</dim>
					<dim>152</dim>
				</port>
			</output>
		</layer>
		<layer id="290" name="StatefulPartitionedCall/model/add_1/add/fq_input_0" type="FakeQuantize" version="opset1">
			<data levels="256" auto_broadcast="numpy"/>
			<input>
				<port id="0">
					<dim>1</dim>
					<dim>64</dim>
					<dim>152</dim>
					<dim>152</dim>
				</port>
				<port id="1">
					<dim>1</dim>
					<dim>1</dim>
					<dim>1</dim>
					<dim>1</dim>
				</port>
				<port id="2">
					<dim>1</dim>
					<dim>1</dim>
					<dim>1</dim>
					<dim>1</dim>
				</port>
				<port id="3">
					<dim>1</dim>
					<dim>1</dim>
					<dim>1</dim>
					<dim>1</dim>
				</port>
				<port id="4">
					<dim>1</dim>
					<dim>1</dim>
					<dim>1</dim>
					<dim>1</dim>
				</port>
			</input>
			<output>
				<port id="5" precision="FP32">
					<dim>1</dim>
					<dim>64</dim>
					<dim>152</dim>
					<dim>152</dim>
				</port>
			</output>
		</layer>
		<layer id="291" name="3673367722086" type="Const" version="opset1">
			<data offset="264" size="4" shape="1,1,1,1" element_type="f32"/>
			<output>
				<port id="0" precision="FP32">
					<dim>1</dim>
					<dim>1</dim>
					<dim>1</dim>
					<dim>1</dim>
				</port>
			</output>
		</layer>
		<layer id="292" name="3674367823562" type="Const" version="opset1">
			<data offset="148900" size="4" shape="1,1,1,1" element_type="f32"/>
			<output>
				<port id="0" precision="FP32">
					<dim>1</dim>
					<dim>1</dim>
					<dim>1</dim>
					<dim>1</dim>
				</port>
			</output>
		</layer>
		<layer id="293" name="3675367924657" type="Const" version="opset1">
			<data offset="264" size="4" shape="1,1,1,1" element_type="f32"/>
			<output>
				<port id="0" precision="FP32">
					<dim>1</dim>
					<dim>1</dim>
					<dim>1</dim>
					<dim>1</dim>
				</port>
			</output>
		</layer>
		<layer id="294" name="3676368023637" type="Const" version="opset1">
			<data offset="148900" size="4" shape="1,1,1,1" element_type="f32"/>
			<output>
				<port id="0" precision="FP32">
					<dim>1</dim>
					<dim>1</dim>
					<dim>1</dim>
					<dim>1</dim>
				</port>
			</output>
		</layer>
		<layer id="295" name="3103310722734" type="Const" version="opset1">
			<data offset="148904" size="4" shape="1,1,1,1" element_type="f32"/>
			<output>
				<port id="0" precision="FP32">
					<dim>1</dim>
					<dim>1</dim>
					<dim>1</dim>
					<dim>1</dim>
				</port>
			</output>
		</layer>
		<layer id="296" name="3104310822878" type="Const" version="opset1">
			<data offset="148908" size="4" shape="1,1,1,1" element_type="f32"/>
			<output>
				<port id="0" precision="FP32">
					<dim>1</dim>
					<dim>1</dim>
					<dim>1</dim>
					<dim>1</dim>
				</port>
			</output>
		</layer>
		<layer id="297" name="3105310923034" type="Const" version="opset1">
			<data offset="148904" size="4" shape="1,1,1,1" element_type="f32"/>
			<output>
				<port id="0" precision="FP32">
					<dim>1</dim>
					<dim>1</dim>
					<dim>1</dim>
					<dim>1</dim>
				</port>
			</output>
		</layer>
		<layer id="298" name="3106311023592" type="Const" version="opset1">
			<data offset="148908" size="4" shape="1,1,1,1" element_type="f32"/>
			<output>
				<port id="0" precision="FP32">
					<dim>1</dim>
					<dim>1</dim>
					<dim>1</dim>
					<dim>1</dim>
				</port>
			</output>
		</layer>
		<layer id="299" name="StatefulPartitionedCall/model/batch_normalization_11/FusedBatchNormV3/mean/Fused_Mul__copy101012486/restored_convert/quantized1609722896" type="Const" version="opset1">
			<data offset="148912" size="4096" shape="64,64,1,1" element_type="i8"/>
			<output>
				<port id="0" precision="I8">
					<dim>64</dim>
					<dim>64</dim>
					<dim>1</dim>
					<dim>1</dim>
				</port>
			</output>
		</layer>
		<layer id="300" name="StatefulPartitionedCall/model/batch_normalization_11/FusedBatchNormV3/mean/Fused_Mul__copy101012486/restored_convert/quantized/to_f32" type="Convert" version="opset1">
			<data destination_type="f32"/>
			<input>
				<port id="0">
					<dim>64</dim>
					<dim>64</dim>
					<dim>1</dim>
					<dim>1</dim>
				</port>
			</input>
			<output>
				<port id="1" precision="FP32">
					<dim>64</dim>
					<dim>64</dim>
					<dim>1</dim>
					<dim>1</dim>
				</port>
			</output>
		</layer>
		<layer id="301" name="StatefulPartitionedCall/model/conv2d_11/Conv2D/fq_weights_1/zero_point1611621882" type="Const" version="opset1">
			<data offset="153008" size="256" shape="64,1,1,1" element_type="f32"/>
			<output>
				<port id="0" precision="FP32">
					<dim>64</dim>
					<dim>1</dim>
					<dim>1</dim>
					<dim>1</dim>
				</port>
			</output>
		</layer>
		<layer id="302" name="StatefulPartitionedCall/model/conv2d_11/Conv2D/fq_weights_1/minus_zp" type="Subtract" version="opset1">
			<data auto_broadcast="numpy"/>
			<input>
				<port id="0">
					<dim>64</dim>
					<dim>64</dim>
					<dim>1</dim>
					<dim>1</dim>
				</port>
				<port id="1">
					<dim>64</dim>
					<dim>1</dim>
					<dim>1</dim>
					<dim>1</dim>
				</port>
			</input>
			<output>
				<port id="2" precision="FP32">
					<dim>64</dim>
					<dim>64</dim>
					<dim>1</dim>
					<dim>1</dim>
				</port>
			</output>
		</layer>
		<layer id="303" name="StatefulPartitionedCall/model/conv2d_11/Conv2D/fq_weights_1/scale1610522662" type="Const" version="opset1">
			<data offset="153264" size="256" shape="64,1,1,1" element_type="f32"/>
			<output>
				<port id="0" precision="FP32">
					<dim>64</dim>
					<dim>1</dim>
					<dim>1</dim>
					<dim>1</dim>
				</port>
			</output>
		</layer>
		<layer id="304" name="StatefulPartitionedCall/model/conv2d_11/Conv2D/fq_weights_1/mulpiply_by_scale" type="Multiply" version="opset1">
			<data auto_broadcast="numpy"/>
			<input>
				<port id="0">
					<dim>64</dim>
					<dim>64</dim>
					<dim>1</dim>
					<dim>1</dim>
				</port>
				<port id="1">
					<dim>64</dim>
					<dim>1</dim>
					<dim>1</dim>
					<dim>1</dim>
				</port>
			</input>
			<output>
				<port id="2" precision="FP32">
					<dim>64</dim>
					<dim>64</dim>
					<dim>1</dim>
					<dim>1</dim>
				</port>
			</output>
		</layer>
		<layer id="305" name="StatefulPartitionedCall/model/conv2d_11/Conv2D" type="Convolution" version="opset1">
			<data auto_pad="same_upper" strides="1,1" dilations="1,1" pads_begin="0,0" pads_end="0,0"/>
			<rt_info>
				<attribute name="fused_names" version="0" value="StatefulPartitionedCall/model/conv2d_11/Conv2D"/>
			</rt_info>
			<input>
				<port id="0">
					<dim>1</dim>
					<dim>64</dim>
					<dim>152</dim>
					<dim>152</dim>
				</port>
				<port id="1">
					<dim>64</dim>
					<dim>64</dim>
					<dim>1</dim>
					<dim>1</dim>
				</port>
			</input>
			<output>
				<port id="2" precision="FP32">
					<dim>1</dim>
					<dim>64</dim>
					<dim>152</dim>
					<dim>152</dim>
				</port>
			</output>
		</layer>
		<layer id="306" name="data_add_2192921934101324315" type="Const" version="opset1">
			<data offset="153520" size="128" shape="1,64,1,1" element_type="f16"/>
			<output>
				<port id="0" precision="FP16">
					<dim>1</dim>
					<dim>64</dim>
					<dim>1</dim>
					<dim>1</dim>
				</port>
			</output>
		</layer>
		<layer id="307" name="data_add_2192921934101312487/restored_convert" type="Convert" version="opset1">
			<data destination_type="f32"/>
			<rt_info>
				<attribute name="decompression" version="0"/>
				<attribute name="fused_names" version="0" value="data_add_2192921934"/>
			</rt_info>
			<input>
				<port id="0">
					<dim>1</dim>
					<dim>64</dim>
					<dim>1</dim>
					<dim>1</dim>
				</port>
			</input>
			<output>
				<port id="1" precision="FP32">
					<dim>1</dim>
					<dim>64</dim>
					<dim>1</dim>
					<dim>1</dim>
				</port>
			</output>
		</layer>
		<layer id="308" name="StatefulPartitionedCall/model/batch_normalization_11/FusedBatchNormV3/variance/Fused_Add_" type="Add" version="opset1">
			<data auto_broadcast="numpy"/>
			<rt_info>
				<attribute name="fused_names" version="0" value="StatefulPartitionedCall/model/batch_normalization_11/FusedBatchNormV3/variance/Fused_Add_"/>
			</rt_info>
			<input>
				<port id="0">
					<dim>1</dim>
					<dim>64</dim>
					<dim>152</dim>
					<dim>152</dim>
				</port>
				<port id="1">
					<dim>1</dim>
					<dim>64</dim>
					<dim>1</dim>
					<dim>1</dim>
				</port>
			</input>
			<output>
				<port id="2" precision="FP32" names="StatefulPartitionedCall/model/batch_normalization_11/FusedBatchNormV3:0">
					<dim>1</dim>
					<dim>64</dim>
					<dim>152</dim>
					<dim>152</dim>
				</port>
			</output>
		</layer>
		<layer id="309" name="StatefulPartitionedCall/model/activation_11/mul" type="Mish" version="opset4">
			<rt_info>
				<attribute name="fused_names" version="0" value="StatefulPartitionedCall/model/activation_11/Softplus, StatefulPartitionedCall/model/activation_11/Tanh, StatefulPartitionedCall/model/activation_11/mul"/>
			</rt_info>
			<input>
				<port id="0">
					<dim>1</dim>
					<dim>64</dim>
					<dim>152</dim>
					<dim>152</dim>
				</port>
			</input>
			<output>
				<port id="1" precision="FP32" names="StatefulPartitionedCall/model/activation_11/mul:0">
					<dim>1</dim>
					<dim>64</dim>
					<dim>152</dim>
					<dim>152</dim>
				</port>
			</output>
		</layer>
		<layer id="310" name="StatefulPartitionedCall/model/conv2d_12/Conv2D/fq_input_0" type="FakeQuantize" version="opset1">
			<data levels="256" auto_broadcast="numpy"/>
			<input>
				<port id="0">
					<dim>1</dim>
					<dim>64</dim>
					<dim>152</dim>
					<dim>152</dim>
				</port>
				<port id="1">
					<dim>1</dim>
					<dim>1</dim>
					<dim>1</dim>
					<dim>1</dim>
				</port>
				<port id="2">
					<dim>1</dim>
					<dim>1</dim>
					<dim>1</dim>
					<dim>1</dim>
				</port>
				<port id="3">
					<dim>1</dim>
					<dim>1</dim>
					<dim>1</dim>
					<dim>1</dim>
				</port>
				<port id="4">
					<dim>1</dim>
					<dim>1</dim>
					<dim>1</dim>
					<dim>1</dim>
				</port>
			</input>
			<output>
				<port id="5" precision="FP32">
					<dim>1</dim>
					<dim>64</dim>
					<dim>152</dim>
					<dim>152</dim>
				</port>
			</output>
		</layer>
		<layer id="311" name="StatefulPartitionedCall/model/batch_normalization_12/FusedBatchNormV3/mean/Fused_Mul__copy101712488/restored_convert/quantized1630723931" type="Const" version="opset1">
			<data offset="153648" size="36864" shape="64,64,3,3" element_type="i8"/>
			<output>
				<port id="0" precision="I8">
					<dim>64</dim>
					<dim>64</dim>
					<dim>3</dim>
					<dim>3</dim>
				</port>
			</output>
		</layer>
		<layer id="312" name="StatefulPartitionedCall/model/batch_normalization_12/FusedBatchNormV3/mean/Fused_Mul__copy101712488/restored_convert/quantized/to_f32" type="Convert" version="opset1">
			<data destination_type="f32"/>
			<input>
				<port id="0">
					<dim>64</dim>
					<dim>64</dim>
					<dim>3</dim>
					<dim>3</dim>
				</port>
			</input>
			<output>
				<port id="1" precision="FP32">
					<dim>64</dim>
					<dim>64</dim>
					<dim>3</dim>
					<dim>3</dim>
				</port>
			</output>
		</layer>
		<layer id="313" name="StatefulPartitionedCall/model/conv2d_12/Conv2D/fq_weights_1/zero_point1632623007" type="Const" version="opset1">
			<data offset="190512" size="256" shape="64,1,1,1" element_type="f32"/>
			<output>
				<port id="0" precision="FP32">
					<dim>64</dim>
					<dim>1</dim>
					<dim>1</dim>
					<dim>1</dim>
				</port>
			</output>
		</layer>
		<layer id="314" name="StatefulPartitionedCall/model/conv2d_12/Conv2D/fq_weights_1/minus_zp" type="Subtract" version="opset1">
			<data auto_broadcast="numpy"/>
			<input>
				<port id="0">
					<dim>64</dim>
					<dim>64</dim>
					<dim>3</dim>
					<dim>3</dim>
				</port>
				<port id="1">
					<dim>64</dim>
					<dim>1</dim>
					<dim>1</dim>
					<dim>1</dim>
				</port>
			</input>
			<output>
				<port id="2" precision="FP32">
					<dim>64</dim>
					<dim>64</dim>
					<dim>3</dim>
					<dim>3</dim>
				</port>
			</output>
		</layer>
		<layer id="315" name="StatefulPartitionedCall/model/conv2d_12/Conv2D/fq_weights_1/scale1631523883" type="Const" version="opset1">
			<data offset="190768" size="256" shape="64,1,1,1" element_type="f32"/>
			<output>
				<port id="0" precision="FP32">
					<dim>64</dim>
					<dim>1</dim>
					<dim>1</dim>
					<dim>1</dim>
				</port>
			</output>
		</layer>
		<layer id="316" name="StatefulPartitionedCall/model/conv2d_12/Conv2D/fq_weights_1/mulpiply_by_scale" type="Multiply" version="opset1">
			<data auto_broadcast="numpy"/>
			<input>
				<port id="0">
					<dim>64</dim>
					<dim>64</dim>
					<dim>3</dim>
					<dim>3</dim>
				</port>
				<port id="1">
					<dim>64</dim>
					<dim>1</dim>
					<dim>1</dim>
					<dim>1</dim>
				</port>
			</input>
			<output>
				<port id="2" precision="FP32">
					<dim>64</dim>
					<dim>64</dim>
					<dim>3</dim>
					<dim>3</dim>
				</port>
			</output>
		</layer>
		<layer id="317" name="StatefulPartitionedCall/model/conv2d_12/Conv2D" type="Convolution" version="opset1">
			<data auto_pad="same_upper" strides="1,1" dilations="1,1" pads_begin="0,0" pads_end="0,0"/>
			<rt_info>
				<attribute name="fused_names" version="0" value="StatefulPartitionedCall/model/conv2d_12/Conv2D"/>
			</rt_info>
			<input>
				<port id="0">
					<dim>1</dim>
					<dim>64</dim>
					<dim>152</dim>
					<dim>152</dim>
				</port>
				<port id="1">
					<dim>64</dim>
					<dim>64</dim>
					<dim>3</dim>
					<dim>3</dim>
				</port>
			</input>
			<output>
				<port id="2" precision="FP32">
					<dim>1</dim>
					<dim>64</dim>
					<dim>152</dim>
					<dim>152</dim>
				</port>
			</output>
		</layer>
		<layer id="318" name="data_add_2193721942102022221" type="Const" version="opset1">
			<data offset="191024" size="128" shape="1,64,1,1" element_type="f16"/>
			<output>
				<port id="0" precision="FP16">
					<dim>1</dim>
					<dim>64</dim>
					<dim>1</dim>
					<dim>1</dim>
				</port>
			</output>
		</layer>
		<layer id="319" name="data_add_2193721942102012489/restored_convert" type="Convert" version="opset1">
			<data destination_type="f32"/>
			<rt_info>
				<attribute name="decompression" version="0"/>
				<attribute name="fused_names" version="0" value="data_add_2193721942"/>
			</rt_info>
			<input>
				<port id="0">
					<dim>1</dim>
					<dim>64</dim>
					<dim>1</dim>
					<dim>1</dim>
				</port>
			</input>
			<output>
				<port id="1" precision="FP32">
					<dim>1</dim>
					<dim>64</dim>
					<dim>1</dim>
					<dim>1</dim>
				</port>
			</output>
		</layer>
		<layer id="320" name="StatefulPartitionedCall/model/batch_normalization_12/FusedBatchNormV3/variance/Fused_Add_" type="Add" version="opset1">
			<data auto_broadcast="numpy"/>
			<rt_info>
				<attribute name="fused_names" version="0" value="StatefulPartitionedCall/model/batch_normalization_12/FusedBatchNormV3/variance/Fused_Add_"/>
			</rt_info>
			<input>
				<port id="0">
					<dim>1</dim>
					<dim>64</dim>
					<dim>152</dim>
					<dim>152</dim>
				</port>
				<port id="1">
					<dim>1</dim>
					<dim>64</dim>
					<dim>1</dim>
					<dim>1</dim>
				</port>
			</input>
			<output>
				<port id="2" precision="FP32" names="StatefulPartitionedCall/model/batch_normalization_12/FusedBatchNormV3:0">
					<dim>1</dim>
					<dim>64</dim>
					<dim>152</dim>
					<dim>152</dim>
				</port>
			</output>
		</layer>
		<layer id="321" name="StatefulPartitionedCall/model/activation_12/mul" type="Mish" version="opset4">
			<rt_info>
				<attribute name="fused_names" version="0" value="StatefulPartitionedCall/model/activation_12/Softplus, StatefulPartitionedCall/model/activation_12/Tanh, StatefulPartitionedCall/model/activation_12/mul"/>
			</rt_info>
			<input>
				<port id="0">
					<dim>1</dim>
					<dim>64</dim>
					<dim>152</dim>
					<dim>152</dim>
				</port>
			</input>
			<output>
				<port id="1" precision="FP32" names="StatefulPartitionedCall/model/activation_12/mul:0">
					<dim>1</dim>
					<dim>64</dim>
					<dim>152</dim>
					<dim>152</dim>
				</port>
			</output>
		</layer>
		<layer id="322" name="StatefulPartitionedCall/model/add_1/add/fq_input_1" type="FakeQuantize" version="opset1">
			<data levels="256" auto_broadcast="numpy"/>
			<input>
				<port id="0">
					<dim>1</dim>
					<dim>64</dim>
					<dim>152</dim>
					<dim>152</dim>
				</port>
				<port id="1">
					<dim>1</dim>
					<dim>1</dim>
					<dim>1</dim>
					<dim>1</dim>
				</port>
				<port id="2">
					<dim>1</dim>
					<dim>1</dim>
					<dim>1</dim>
					<dim>1</dim>
				</port>
				<port id="3">
					<dim>1</dim>
					<dim>1</dim>
					<dim>1</dim>
					<dim>1</dim>
				</port>
				<port id="4">
					<dim>1</dim>
					<dim>1</dim>
					<dim>1</dim>
					<dim>1</dim>
				</port>
			</input>
			<output>
				<port id="5" precision="FP32">
					<dim>1</dim>
					<dim>64</dim>
					<dim>152</dim>
					<dim>152</dim>
				</port>
			</output>
		</layer>
		<layer id="323" name="StatefulPartitionedCall/model/add_1/add" type="Add" version="opset1">
			<data auto_broadcast="numpy"/>
			<rt_info>
				<attribute name="fused_names" version="0" value="StatefulPartitionedCall/model/add_1/add"/>
			</rt_info>
			<input>
				<port id="0">
					<dim>1</dim>
					<dim>64</dim>
					<dim>152</dim>
					<dim>152</dim>
				</port>
				<port id="1">
					<dim>1</dim>
					<dim>64</dim>
					<dim>152</dim>
					<dim>152</dim>
				</port>
			</input>
			<output>
				<port id="2" precision="FP32" names="StatefulPartitionedCall/model/add_1/add:0">
					<dim>1</dim>
					<dim>64</dim>
					<dim>152</dim>
					<dim>152</dim>
				</port>
			</output>
		</layer>
		<layer id="324" name="StatefulPartitionedCall/model/add_2/add/fq_input_0" type="FakeQuantize" version="opset1">
			<data levels="256" auto_broadcast="numpy"/>
			<input>
				<port id="0">
					<dim>1</dim>
					<dim>64</dim>
					<dim>152</dim>
					<dim>152</dim>
				</port>
				<port id="1">
					<dim>1</dim>
					<dim>1</dim>
					<dim>1</dim>
					<dim>1</dim>
				</port>
				<port id="2">
					<dim>1</dim>
					<dim>1</dim>
					<dim>1</dim>
					<dim>1</dim>
				</port>
				<port id="3">
					<dim>1</dim>
					<dim>1</dim>
					<dim>1</dim>
					<dim>1</dim>
				</port>
				<port id="4">
					<dim>1</dim>
					<dim>1</dim>
					<dim>1</dim>
					<dim>1</dim>
				</port>
			</input>
			<output>
				<port id="5" precision="FP32">
					<dim>1</dim>
					<dim>64</dim>
					<dim>152</dim>
					<dim>152</dim>
				</port>
			</output>
		</layer>
		<layer id="325" name="3453345723499" type="Const" version="opset1">
			<data offset="191152" size="4" shape="1,1,1,1" element_type="f32"/>
			<output>
				<port id="0" precision="FP32">
					<dim>1</dim>
					<dim>1</dim>
					<dim>1</dim>
					<dim>1</dim>
				</port>
			</output>
		</layer>
		<layer id="326" name="3454345822359" type="Const" version="opset1">
			<data offset="191156" size="4" shape="1,1,1,1" element_type="f32"/>
			<output>
				<port id="0" precision="FP32">
					<dim>1</dim>
					<dim>1</dim>
					<dim>1</dim>
					<dim>1</dim>
				</port>
			</output>
		</layer>
		<layer id="327" name="3455345923646" type="Const" version="opset1">
			<data offset="191152" size="4" shape="1,1,1,1" element_type="f32"/>
			<output>
				<port id="0" precision="FP32">
					<dim>1</dim>
					<dim>1</dim>
					<dim>1</dim>
					<dim>1</dim>
				</port>
			</output>
		</layer>
		<layer id="328" name="3456346024474" type="Const" version="opset1">
			<data offset="191156" size="4" shape="1,1,1,1" element_type="f32"/>
			<output>
				<port id="0" precision="FP32">
					<dim>1</dim>
					<dim>1</dim>
					<dim>1</dim>
					<dim>1</dim>
				</port>
			</output>
		</layer>
		<layer id="329" name="5463546722563" type="Const" version="opset1">
			<data offset="264" size="4" shape="1,1,1,1" element_type="f32"/>
			<output>
				<port id="0" precision="FP32">
					<dim>1</dim>
					<dim>1</dim>
					<dim>1</dim>
					<dim>1</dim>
				</port>
			</output>
		</layer>
		<layer id="330" name="5464546822908" type="Const" version="opset1">
			<data offset="191160" size="4" shape="1,1,1,1" element_type="f32"/>
			<output>
				<port id="0" precision="FP32">
					<dim>1</dim>
					<dim>1</dim>
					<dim>1</dim>
					<dim>1</dim>
				</port>
			</output>
		</layer>
		<layer id="331" name="5465546922527" type="Const" version="opset1">
			<data offset="264" size="4" shape="1,1,1,1" element_type="f32"/>
			<output>
				<port id="0" precision="FP32">
					<dim>1</dim>
					<dim>1</dim>
					<dim>1</dim>
					<dim>1</dim>
				</port>
			</output>
		</layer>
		<layer id="332" name="5466547023100" type="Const" version="opset1">
			<data offset="191160" size="4" shape="1,1,1,1" element_type="f32"/>
			<output>
				<port id="0" precision="FP32">
					<dim>1</dim>
					<dim>1</dim>
					<dim>1</dim>
					<dim>1</dim>
				</port>
			</output>
		</layer>
		<layer id="333" name="StatefulPartitionedCall/model/batch_normalization_13/FusedBatchNormV3/mean/Fused_Mul__copy102512490/restored_convert/quantized1441723163" type="Const" version="opset1">
			<data offset="191164" size="4096" shape="64,64,1,1" element_type="i8"/>
			<output>
				<port id="0" precision="I8">
					<dim>64</dim>
					<dim>64</dim>
					<dim>1</dim>
					<dim>1</dim>
				</port>
			</output>
		</layer>
		<layer id="334" name="StatefulPartitionedCall/model/batch_normalization_13/FusedBatchNormV3/mean/Fused_Mul__copy102512490/restored_convert/quantized/to_f32" type="Convert" version="opset1">
			<data destination_type="f32"/>
			<input>
				<port id="0">
					<dim>64</dim>
					<dim>64</dim>
					<dim>1</dim>
					<dim>1</dim>
				</port>
			</input>
			<output>
				<port id="1" precision="FP32">
					<dim>64</dim>
					<dim>64</dim>
					<dim>1</dim>
					<dim>1</dim>
				</port>
			</output>
		</layer>
		<layer id="335" name="StatefulPartitionedCall/model/conv2d_13/Conv2D/fq_weights_1/zero_point1443623088" type="Const" version="opset1">
			<data offset="195260" size="256" shape="64,1,1,1" element_type="f32"/>
			<output>
				<port id="0" precision="FP32">
					<dim>64</dim>
					<dim>1</dim>
					<dim>1</dim>
					<dim>1</dim>
				</port>
			</output>
		</layer>
		<layer id="336" name="StatefulPartitionedCall/model/conv2d_13/Conv2D/fq_weights_1/minus_zp" type="Subtract" version="opset1">
			<data auto_broadcast="numpy"/>
			<input>
				<port id="0">
					<dim>64</dim>
					<dim>64</dim>
					<dim>1</dim>
					<dim>1</dim>
				</port>
				<port id="1">
					<dim>64</dim>
					<dim>1</dim>
					<dim>1</dim>
					<dim>1</dim>
				</port>
			</input>
			<output>
				<port id="2" precision="FP32">
					<dim>64</dim>
					<dim>64</dim>
					<dim>1</dim>
					<dim>1</dim>
				</port>
			</output>
		</layer>
		<layer id="337" name="StatefulPartitionedCall/model/conv2d_13/Conv2D/fq_weights_1/scale1442523076" type="Const" version="opset1">
			<data offset="195516" size="256" shape="64,1,1,1" element_type="f32"/>
			<output>
				<port id="0" precision="FP32">
					<dim>64</dim>
					<dim>1</dim>
					<dim>1</dim>
					<dim>1</dim>
				</port>
			</output>
		</layer>
		<layer id="338" name="StatefulPartitionedCall/model/conv2d_13/Conv2D/fq_weights_1/mulpiply_by_scale" type="Multiply" version="opset1">
			<data auto_broadcast="numpy"/>
			<input>
				<port id="0">
					<dim>64</dim>
					<dim>64</dim>
					<dim>1</dim>
					<dim>1</dim>
				</port>
				<port id="1">
					<dim>64</dim>
					<dim>1</dim>
					<dim>1</dim>
					<dim>1</dim>
				</port>
			</input>
			<output>
				<port id="2" precision="FP32">
					<dim>64</dim>
					<dim>64</dim>
					<dim>1</dim>
					<dim>1</dim>
				</port>
			</output>
		</layer>
		<layer id="339" name="StatefulPartitionedCall/model/conv2d_13/Conv2D" type="Convolution" version="opset1">
			<data auto_pad="same_upper" strides="1,1" dilations="1,1" pads_begin="0,0" pads_end="0,0"/>
			<rt_info>
				<attribute name="fused_names" version="0" value="StatefulPartitionedCall/model/conv2d_13/Conv2D"/>
			</rt_info>
			<input>
				<port id="0">
					<dim>1</dim>
					<dim>64</dim>
					<dim>152</dim>
					<dim>152</dim>
				</port>
				<port id="1">
					<dim>64</dim>
					<dim>64</dim>
					<dim>1</dim>
					<dim>1</dim>
				</port>
			</input>
			<output>
				<port id="2" precision="FP32">
					<dim>1</dim>
					<dim>64</dim>
					<dim>152</dim>
					<dim>152</dim>
				</port>
			</output>
		</layer>
		<layer id="340" name="data_add_2194521950102823550" type="Const" version="opset1">
			<data offset="195772" size="128" shape="1,64,1,1" element_type="f16"/>
			<output>
				<port id="0" precision="FP16">
					<dim>1</dim>
					<dim>64</dim>
					<dim>1</dim>
					<dim>1</dim>
				</port>
			</output>
		</layer>
		<layer id="341" name="data_add_2194521950102812491/restored_convert" type="Convert" version="opset1">
			<data destination_type="f32"/>
			<rt_info>
				<attribute name="decompression" version="0"/>
				<attribute name="fused_names" version="0" value="data_add_2194521950"/>
			</rt_info>
			<input>
				<port id="0">
					<dim>1</dim>
					<dim>64</dim>
					<dim>1</dim>
					<dim>1</dim>
				</port>
			</input>
			<output>
				<port id="1" precision="FP32">
					<dim>1</dim>
					<dim>64</dim>
					<dim>1</dim>
					<dim>1</dim>
				</port>
			</output>
		</layer>
		<layer id="342" name="StatefulPartitionedCall/model/batch_normalization_13/FusedBatchNormV3/variance/Fused_Add_" type="Add" version="opset1">
			<data auto_broadcast="numpy"/>
			<rt_info>
				<attribute name="fused_names" version="0" value="StatefulPartitionedCall/model/batch_normalization_13/FusedBatchNormV3/variance/Fused_Add_"/>
			</rt_info>
			<input>
				<port id="0">
					<dim>1</dim>
					<dim>64</dim>
					<dim>152</dim>
					<dim>152</dim>
				</port>
				<port id="1">
					<dim>1</dim>
					<dim>64</dim>
					<dim>1</dim>
					<dim>1</dim>
				</port>
			</input>
			<output>
				<port id="2" precision="FP32" names="StatefulPartitionedCall/model/batch_normalization_13/FusedBatchNormV3:0">
					<dim>1</dim>
					<dim>64</dim>
					<dim>152</dim>
					<dim>152</dim>
				</port>
			</output>
		</layer>
		<layer id="343" name="StatefulPartitionedCall/model/activation_13/mul" type="Mish" version="opset4">
			<rt_info>
				<attribute name="fused_names" version="0" value="StatefulPartitionedCall/model/activation_13/Softplus, StatefulPartitionedCall/model/activation_13/Tanh, StatefulPartitionedCall/model/activation_13/mul"/>
			</rt_info>
			<input>
				<port id="0">
					<dim>1</dim>
					<dim>64</dim>
					<dim>152</dim>
					<dim>152</dim>
				</port>
			</input>
			<output>
				<port id="1" precision="FP32" names="StatefulPartitionedCall/model/activation_13/mul:0">
					<dim>1</dim>
					<dim>64</dim>
					<dim>152</dim>
					<dim>152</dim>
				</port>
			</output>
		</layer>
		<layer id="344" name="StatefulPartitionedCall/model/conv2d_14/Conv2D/fq_input_0" type="FakeQuantize" version="opset1">
			<data levels="256" auto_broadcast="numpy"/>
			<input>
				<port id="0">
					<dim>1</dim>
					<dim>64</dim>
					<dim>152</dim>
					<dim>152</dim>
				</port>
				<port id="1">
					<dim>1</dim>
					<dim>1</dim>
					<dim>1</dim>
					<dim>1</dim>
				</port>
				<port id="2">
					<dim>1</dim>
					<dim>1</dim>
					<dim>1</dim>
					<dim>1</dim>
				</port>
				<port id="3">
					<dim>1</dim>
					<dim>1</dim>
					<dim>1</dim>
					<dim>1</dim>
				</port>
				<port id="4">
					<dim>1</dim>
					<dim>1</dim>
					<dim>1</dim>
					<dim>1</dim>
				</port>
			</input>
			<output>
				<port id="5" precision="FP32">
					<dim>1</dim>
					<dim>64</dim>
					<dim>152</dim>
					<dim>152</dim>
				</port>
			</output>
		</layer>
		<layer id="345" name="StatefulPartitionedCall/model/batch_normalization_14/FusedBatchNormV3/mean/Fused_Mul__copy103212492/restored_convert/quantized1438724420" type="Const" version="opset1">
			<data offset="195900" size="36864" shape="64,64,3,3" element_type="i8"/>
			<output>
				<port id="0" precision="I8">
					<dim>64</dim>
					<dim>64</dim>
					<dim>3</dim>
					<dim>3</dim>
				</port>
			</output>
		</layer>
		<layer id="346" name="StatefulPartitionedCall/model/batch_normalization_14/FusedBatchNormV3/mean/Fused_Mul__copy103212492/restored_convert/quantized/to_f32" type="Convert" version="opset1">
			<data destination_type="f32"/>
			<input>
				<port id="0">
					<dim>64</dim>
					<dim>64</dim>
					<dim>3</dim>
					<dim>3</dim>
				</port>
			</input>
			<output>
				<port id="1" precision="FP32">
					<dim>64</dim>
					<dim>64</dim>
					<dim>3</dim>
					<dim>3</dim>
				</port>
			</output>
		</layer>
		<layer id="347" name="StatefulPartitionedCall/model/conv2d_14/Conv2D/fq_weights_1/zero_point1440624246" type="Const" version="opset1">
			<data offset="232764" size="256" shape="64,1,1,1" element_type="f32"/>
			<output>
				<port id="0" precision="FP32">
					<dim>64</dim>
					<dim>1</dim>
					<dim>1</dim>
					<dim>1</dim>
				</port>
			</output>
		</layer>
		<layer id="348" name="StatefulPartitionedCall/model/conv2d_14/Conv2D/fq_weights_1/minus_zp" type="Subtract" version="opset1">
			<data auto_broadcast="numpy"/>
			<input>
				<port id="0">
					<dim>64</dim>
					<dim>64</dim>
					<dim>3</dim>
					<dim>3</dim>
				</port>
				<port id="1">
					<dim>64</dim>
					<dim>1</dim>
					<dim>1</dim>
					<dim>1</dim>
				</port>
			</input>
			<output>
				<port id="2" precision="FP32">
					<dim>64</dim>
					<dim>64</dim>
					<dim>3</dim>
					<dim>3</dim>
				</port>
			</output>
		</layer>
		<layer id="349" name="StatefulPartitionedCall/model/conv2d_14/Conv2D/fq_weights_1/scale1439522275" type="Const" version="opset1">
			<data offset="233020" size="256" shape="64,1,1,1" element_type="f32"/>
			<output>
				<port id="0" precision="FP32">
					<dim>64</dim>
					<dim>1</dim>
					<dim>1</dim>
					<dim>1</dim>
				</port>
			</output>
		</layer>
		<layer id="350" name="StatefulPartitionedCall/model/conv2d_14/Conv2D/fq_weights_1/mulpiply_by_scale" type="Multiply" version="opset1">
			<data auto_broadcast="numpy"/>
			<input>
				<port id="0">
					<dim>64</dim>
					<dim>64</dim>
					<dim>3</dim>
					<dim>3</dim>
				</port>
				<port id="1">
					<dim>64</dim>
					<dim>1</dim>
					<dim>1</dim>
					<dim>1</dim>
				</port>
			</input>
			<output>
				<port id="2" precision="FP32">
					<dim>64</dim>
					<dim>64</dim>
					<dim>3</dim>
					<dim>3</dim>
				</port>
			</output>
		</layer>
		<layer id="351" name="StatefulPartitionedCall/model/conv2d_14/Conv2D" type="Convolution" version="opset1">
			<data auto_pad="same_upper" strides="1,1" dilations="1,1" pads_begin="0,0" pads_end="0,0"/>
			<rt_info>
				<attribute name="fused_names" version="0" value="StatefulPartitionedCall/model/conv2d_14/Conv2D"/>
			</rt_info>
			<input>
				<port id="0">
					<dim>1</dim>
					<dim>64</dim>
					<dim>152</dim>
					<dim>152</dim>
				</port>
				<port id="1">
					<dim>64</dim>
					<dim>64</dim>
					<dim>3</dim>
					<dim>3</dim>
				</port>
			</input>
			<output>
				<port id="2" precision="FP32">
					<dim>1</dim>
					<dim>64</dim>
…
		<edge from-layer="1193" from-port="0" to-layer="1498" to-port="4"/>
		<edge from-layer="1499" from-port="0" to-layer="1500" to-port="0"/>
		<edge from-layer="1500" from-port="1" to-layer="1502" to-port="0"/>
		<edge from-layer="1501" from-port="0" to-layer="1502" to-port="1"/>
		<edge from-layer="1502" from-port="2" to-layer="1504" to-port="0"/>
		<edge from-layer="1503" from-port="0" to-layer="1504" to-port="1"/>
		<edge from-layer="1498" from-port="5" to-layer="1505" to-port="0"/>
		<edge from-layer="1504" from-port="2" to-layer="1505" to-port="1"/>
		<edge from-layer="1506" from-port="0" to-layer="1507" to-port="0"/>
		<edge from-layer="1505" from-port="2" to-layer="1508" to-port="0"/>
		<edge from-layer="1507" from-port="1" to-layer="1508" to-port="1"/>
		<edge from-layer="1509" from-port="0" to-layer="1510" to-port="0"/>
		<edge from-layer="1508" from-port="2" to-layer="1511" to-port="0"/>
		<edge from-layer="1510" from-port="1" to-layer="1511" to-port="1"/>
		<edge from-layer="1511" from-port="2" to-layer="1512" to-port="0"/>
		<edge from-layer="1186" from-port="0" to-layer="1512" to-port="1"/>
		<edge from-layer="1187" from-port="0" to-layer="1512" to-port="2"/>
		<edge from-layer="1188" from-port="0" to-layer="1512" to-port="3"/>
		<edge from-layer="1189" from-port="0" to-layer="1512" to-port="4"/>
		<edge from-layer="1513" from-port="0" to-layer="1514" to-port="0"/>
		<edge from-layer="1514" from-port="1" to-layer="1516" to-port="0"/>
		<edge from-layer="1515" from-port="0" to-layer="1516" to-port="1"/>
		<edge from-layer="1516" from-port="2" to-layer="1518" to-port="0"/>
		<edge from-layer="1517" from-port="0" to-layer="1518" to-port="1"/>
		<edge from-layer="1512" from-port="5" to-layer="1519" to-port="0"/>
		<edge from-layer="1518" from-port="2" to-layer="1519" to-port="1"/>
		<edge from-layer="1520" from-port="0" to-layer="1521" to-port="0"/>
		<edge from-layer="1519" from-port="2" to-layer="1522" to-port="0"/>
		<edge from-layer="1521" from-port="1" to-layer="1522" to-port="1"/>
		<edge from-layer="1523" from-port="0" to-layer="1524" to-port="0"/>
		<edge from-layer="1522" from-port="2" to-layer="1525" to-port="0"/>
		<edge from-layer="1524" from-port="1" to-layer="1525" to-port="1"/>
		<edge from-layer="1525" from-port="2" to-layer="1526" to-port="0"/>
		<edge from-layer="1182" from-port="0" to-layer="1526" to-port="1"/>
		<edge from-layer="1183" from-port="0" to-layer="1526" to-port="2"/>
		<edge from-layer="1184" from-port="0" to-layer="1526" to-port="3"/>
		<edge from-layer="1185" from-port="0" to-layer="1526" to-port="4"/>
		<edge from-layer="1527" from-port="0" to-layer="1528" to-port="0"/>
		<edge from-layer="1528" from-port="1" to-layer="1530" to-port="0"/>
		<edge from-layer="1529" from-port="0" to-layer="1530" to-port="1"/>
		<edge from-layer="1530" from-port="2" to-layer="1532" to-port="0"/>
		<edge from-layer="1531" from-port="0" to-layer="1532" to-port="1"/>
		<edge from-layer="1526" from-port="5" to-layer="1533" to-port="0"/>
		<edge from-layer="1532" from-port="2" to-layer="1533" to-port="1"/>
		<edge from-layer="1534" from-port="0" to-layer="1535" to-port="0"/>
		<edge from-layer="1533" from-port="2" to-layer="1536" to-port="0"/>
		<edge from-layer="1535" from-port="1" to-layer="1536" to-port="1"/>
		<edge from-layer="1537" from-port="0" to-layer="1538" to-port="0"/>
		<edge from-layer="1536" from-port="2" to-layer="1539" to-port="0"/>
		<edge from-layer="1538" from-port="1" to-layer="1539" to-port="1"/>
		<edge from-layer="1539" from-port="2" to-layer="1540" to-port="0"/>
		<edge from-layer="1540" from-port="1" to-layer="1543" to-port="0"/>
		<edge from-layer="1541" from-port="0" to-layer="1543" to-port="1"/>
		<edge from-layer="1542" from-port="0" to-layer="1543" to-port="2"/>
		<edge from-layer="1543" from-port="3" to-layer="1547" to-port="0"/>
		<edge from-layer="1544" from-port="0" to-layer="1547" to-port="1"/>
		<edge from-layer="1545" from-port="0" to-layer="1547" to-port="2"/>
		<edge from-layer="1546" from-port="0" to-layer="1547" to-port="3"/>
		<edge from-layer="1547" from-port="4" to-layer="1549" to-port="0"/>
		<edge from-layer="1548" from-port="0" to-layer="1549" to-port="1"/>
		<edge from-layer="1549" from-port="2" to-layer="1550" to-port="0"/>
		<edge from-layer="1539" from-port="2" to-layer="1551" to-port="0"/>
		<edge from-layer="1551" from-port="1" to-layer="1554" to-port="0"/>
		<edge from-layer="1552" from-port="0" to-layer="1554" to-port="1"/>
		<edge from-layer="1553" from-port="0" to-layer="1554" to-port="2"/>
		<edge from-layer="1554" from-port="3" to-layer="1558" to-port="0"/>
		<edge from-layer="1555" from-port="0" to-layer="1558" to-port="1"/>
		<edge from-layer="1556" from-port="0" to-layer="1558" to-port="2"/>
		<edge from-layer="1557" from-port="0" to-layer="1558" to-port="3"/>
		<edge from-layer="1558" from-port="4" to-layer="1559" to-port="0"/>
		<edge from-layer="1550" from-port="1" to-layer="1560" to-port="0"/>
		<edge from-layer="1559" from-port="1" to-layer="1560" to-port="1"/>
		<edge from-layer="1539" from-port="2" to-layer="1566" to-port="0"/>
		<edge from-layer="1562" from-port="0" to-layer="1566" to-port="1"/>
		<edge from-layer="1563" from-port="0" to-layer="1566" to-port="2"/>
		<edge from-layer="1564" from-port="0" to-layer="1566" to-port="3"/>
		<edge from-layer="1565" from-port="0" to-layer="1566" to-port="4"/>
		<edge from-layer="1549" from-port="2" to-layer="1567" to-port="0"/>
		<edge from-layer="1566" from-port="5" to-layer="1568" to-port="0"/>
		<edge from-layer="1567" from-port="1" to-layer="1568" to-port="1"/>
		<edge from-layer="1560" from-port="2" to-layer="1568" to-port="2"/>
		<edge from-layer="1561" from-port="0" to-layer="1568" to-port="3"/>
		<edge from-layer="1568" from-port="4" to-layer="1569" to-port="0"/>
		<edge from-layer="1178" from-port="0" to-layer="1569" to-port="1"/>
		<edge from-layer="1179" from-port="0" to-layer="1569" to-port="2"/>
		<edge from-layer="1180" from-port="0" to-layer="1569" to-port="3"/>
		<edge from-layer="1181" from-port="0" to-layer="1569" to-port="4"/>
		<edge from-layer="1177" from-port="5" to-layer="1570" to-port="0"/>
		<edge from-layer="1569" from-port="5" to-layer="1570" to-port="1"/>
		<edge from-layer="1571" from-port="0" to-layer="1572" to-port="0"/>
		<edge from-layer="1572" from-port="1" to-layer="1574" to-port="0"/>
		<edge from-layer="1573" from-port="0" to-layer="1574" to-port="1"/>
		<edge from-layer="1574" from-port="2" to-layer="1576" to-port="0"/>
		<edge from-layer="1575" from-port="0" to-layer="1576" to-port="1"/>
		<edge from-layer="1570" from-port="2" to-layer="1577" to-port="0"/>
		<edge from-layer="1576" from-port="2" to-layer="1577" to-port="1"/>
		<edge from-layer="1578" from-port="0" to-layer="1579" to-port="0"/>
		<edge from-layer="1577" from-port="2" to-layer="1580" to-port="0"/>
		<edge from-layer="1579" from-port="1" to-layer="1580" to-port="1"/>
		<edge from-layer="1581" from-port="0" to-layer="1582" to-port="0"/>
		<edge from-layer="1580" from-port="2" to-layer="1583" to-port="0"/>
		<edge from-layer="1582" from-port="1" to-layer="1583" to-port="1"/>
		<edge from-layer="1583" from-port="2" to-layer="1584" to-port="0"/>
		<edge from-layer="771" from-port="0" to-layer="1584" to-port="1"/>
		<edge from-layer="772" from-port="0" to-layer="1584" to-port="2"/>
		<edge from-layer="773" from-port="0" to-layer="1584" to-port="3"/>
		<edge from-layer="774" from-port="0" to-layer="1584" to-port="4"/>
		<edge from-layer="1585" from-port="0" to-layer="1586" to-port="0"/>
		<edge from-layer="1586" from-port="1" to-layer="1588" to-port="0"/>
		<edge from-layer="1587" from-port="0" to-layer="1588" to-port="1"/>
		<edge from-layer="1588" from-port="2" to-layer="1590" to-port="0"/>
		<edge from-layer="1589" from-port="0" to-layer="1590" to-port="1"/>
		<edge from-layer="1584" from-port="5" to-layer="1591" to-port="0"/>
		<edge from-layer="1590" from-port="2" to-layer="1591" to-port="1"/>
		<edge from-layer="1592" from-port="0" to-layer="1593" to-port="0"/>
		<edge from-layer="1591" from-port="2" to-layer="1594" to-port="0"/>
		<edge from-layer="1593" from-port="1" to-layer="1594" to-port="1"/>
		<edge from-layer="1595" from-port="0" to-layer="1596" to-port="0"/>
		<edge from-layer="1594" from-port="2" to-layer="1597" to-port="0"/>
		<edge from-layer="1596" from-port="1" to-layer="1597" to-port="1"/>
		<edge from-layer="1597" from-port="2" to-layer="1598" to-port="0"/>
		<edge from-layer="767" from-port="0" to-layer="1598" to-port="1"/>
		<edge from-layer="768" from-port="0" to-layer="1598" to-port="2"/>
		<edge from-layer="769" from-port="0" to-layer="1598" to-port="3"/>
		<edge from-layer="770" from-port="0" to-layer="1598" to-port="4"/>
		<edge from-layer="1599" from-port="0" to-layer="1600" to-port="0"/>
		<edge from-layer="1600" from-port="1" to-layer="1602" to-port="0"/>
		<edge from-layer="1601" from-port="0" to-layer="1602" to-port="1"/>
		<edge from-layer="1602" from-port="2" to-layer="1604" to-port="0"/>
		<edge from-layer="1603" from-port="0" to-layer="1604" to-port="1"/>
		<edge from-layer="1598" from-port="5" to-layer="1605" to-port="0"/>
		<edge from-layer="1604" from-port="2" to-layer="1605" to-port="1"/>
		<edge from-layer="1606" from-port="0" to-layer="1607" to-port="0"/>
		<edge from-layer="1605" from-port="2" to-layer="1608" to-port="0"/>
		<edge from-layer="1607" from-port="1" to-layer="1608" to-port="1"/>
		<edge from-layer="1609" from-port="0" to-layer="1610" to-port="0"/>
		<edge from-layer="1608" from-port="2" to-layer="1611" to-port="0"/>
		<edge from-layer="1610" from-port="1" to-layer="1611" to-port="1"/>
		<edge from-layer="1611" from-port="2" to-layer="1612" to-port="0"/>
		<edge from-layer="763" from-port="0" to-layer="1612" to-port="1"/>
		<edge from-layer="764" from-port="0" to-layer="1612" to-port="2"/>
		<edge from-layer="765" from-port="0" to-layer="1612" to-port="3"/>
		<edge from-layer="766" from-port="0" to-layer="1612" to-port="4"/>
		<edge from-layer="1613" from-port="0" to-layer="1614" to-port="0"/>
		<edge from-layer="1614" from-port="1" to-layer="1616" to-port="0"/>
		<edge from-layer="1615" from-port="0" to-layer="1616" to-port="1"/>
		<edge from-layer="1616" from-port="2" to-layer="1618" to-port="0"/>
		<edge from-layer="1617" from-port="0" to-layer="1618" to-port="1"/>
		<edge from-layer="1612" from-port="5" to-layer="1619" to-port="0"/>
		<edge from-layer="1618" from-port="2" to-layer="1619" to-port="1"/>
		<edge from-layer="1620" from-port="0" to-layer="1621" to-port="0"/>
		<edge from-layer="1619" from-port="2" to-layer="1622" to-port="0"/>
		<edge from-layer="1621" from-port="1" to-layer="1622" to-port="1"/>
		<edge from-layer="1623" from-port="0" to-layer="1624" to-port="0"/>
		<edge from-layer="1622" from-port="2" to-layer="1625" to-port="0"/>
		<edge from-layer="1624" from-port="1" to-layer="1625" to-port="1"/>
		<edge from-layer="1625" from-port="2" to-layer="1626" to-port="0"/>
		<edge from-layer="759" from-port="0" to-layer="1626" to-port="1"/>
		<edge from-layer="760" from-port="0" to-layer="1626" to-port="2"/>
		<edge from-layer="761" from-port="0" to-layer="1626" to-port="3"/>
		<edge from-layer="762" from-port="0" to-layer="1626" to-port="4"/>
		<edge from-layer="1627" from-port="0" to-layer="1628" to-port="0"/>
		<edge from-layer="1628" from-port="1" to-layer="1630" to-port="0"/>
		<edge from-layer="1629" from-port="0" to-layer="1630" to-port="1"/>
		<edge from-layer="1630" from-port="2" to-layer="1632" to-port="0"/>
		<edge from-layer="1631" from-port="0" to-layer="1632" to-port="1"/>
		<edge from-layer="1626" from-port="5" to-layer="1633" to-port="0"/>
		<edge from-layer="1632" from-port="2" to-layer="1633" to-port="1"/>
		<edge from-layer="1634" from-port="0" to-layer="1635" to-port="0"/>
		<edge from-layer="1633" from-port="2" to-layer="1636" to-port="0"/>
		<edge from-layer="1635" from-port="1" to-layer="1636" to-port="1"/>
		<edge from-layer="1637" from-port="0" to-layer="1638" to-port="0"/>
		<edge from-layer="1636" from-port="2" to-layer="1639" to-port="0"/>
		<edge from-layer="1638" from-port="1" to-layer="1639" to-port="1"/>
		<edge from-layer="1639" from-port="2" to-layer="1640" to-port="0"/>
		<edge from-layer="755" from-port="0" to-layer="1640" to-port="1"/>
		<edge from-layer="756" from-port="0" to-layer="1640" to-port="2"/>
		<edge from-layer="757" from-port="0" to-layer="1640" to-port="3"/>
		<edge from-layer="758" from-port="0" to-layer="1640" to-port="4"/>
		<edge from-layer="1641" from-port="0" to-layer="1642" to-port="0"/>
		<edge from-layer="1642" from-port="1" to-layer="1644" to-port="0"/>
		<edge from-layer="1643" from-port="0" to-layer="1644" to-port="1"/>
		<edge from-layer="1644" from-port="2" to-layer="1646" to-port="0"/>
		<edge from-layer="1645" from-port="0" to-layer="1646" to-port="1"/>
		<edge from-layer="1640" from-port="5" to-layer="1647" to-port="0"/>
		<edge from-layer="1646" from-port="2" to-layer="1647" to-port="1"/>
		<edge from-layer="1648" from-port="0" to-layer="1649" to-port="0"/>
		<edge from-layer="1647" from-port="2" to-layer="1650" to-port="0"/>
		<edge from-layer="1649" from-port="1" to-layer="1650" to-port="1"/>
		<edge from-layer="1651" from-port="0" to-layer="1652" to-port="0"/>
		<edge from-layer="1650" from-port="2" to-layer="1653" to-port="0"/>
		<edge from-layer="1652" from-port="1" to-layer="1653" to-port="1"/>
		<edge from-layer="1653" from-port="2" to-layer="1654" to-port="0"/>
		<edge from-layer="1654" from-port="1" to-layer="1657" to-port="0"/>
		<edge from-layer="1655" from-port="0" to-layer="1657" to-port="1"/>
		<edge from-layer="1656" from-port="0" to-layer="1657" to-port="2"/>
		<edge from-layer="1657" from-port="3" to-layer="1661" to-port="0"/>
		<edge from-layer="1658" from-port="0" to-layer="1661" to-port="1"/>
		<edge from-layer="1659" from-port="0" to-layer="1661" to-port="2"/>
		<edge from-layer="1660" from-port="0" to-layer="1661" to-port="3"/>
		<edge from-layer="1661" from-port="4" to-layer="1663" to-port="0"/>
		<edge from-layer="1662" from-port="0" to-layer="1663" to-port="1"/>
		<edge from-layer="1663" from-port="2" to-layer="1664" to-port="0"/>
		<edge from-layer="1653" from-port="2" to-layer="1665" to-port="0"/>
		<edge from-layer="1665" from-port="1" to-layer="1668" to-port="0"/>
		<edge from-layer="1666" from-port="0" to-layer="1668" to-port="1"/>
		<edge from-layer="1667" from-port="0" to-layer="1668" to-port="2"/>
		<edge from-layer="1668" from-port="3" to-layer="1672" to-port="0"/>
		<edge from-layer="1669" from-port="0" to-layer="1672" to-port="1"/>
		<edge from-layer="1670" from-port="0" to-layer="1672" to-port="2"/>
		<edge from-layer="1671" from-port="0" to-layer="1672" to-port="3"/>
		<edge from-layer="1672" from-port="4" to-layer="1673" to-port="0"/>
		<edge from-layer="1664" from-port="1" to-layer="1674" to-port="0"/>
		<edge from-layer="1673" from-port="1" to-layer="1674" to-port="1"/>
		<edge from-layer="1653" from-port="2" to-layer="1680" to-port="0"/>
		<edge from-layer="1676" from-port="0" to-layer="1680" to-port="1"/>
		<edge from-layer="1677" from-port="0" to-layer="1680" to-port="2"/>
		<edge from-layer="1678" from-port="0" to-layer="1680" to-port="3"/>
		<edge from-layer="1679" from-port="0" to-layer="1680" to-port="4"/>
		<edge from-layer="1663" from-port="2" to-layer="1681" to-port="0"/>
		<edge from-layer="1680" from-port="5" to-layer="1682" to-port="0"/>
		<edge from-layer="1681" from-port="1" to-layer="1682" to-port="1"/>
		<edge from-layer="1674" from-port="2" to-layer="1682" to-port="2"/>
		<edge from-layer="1675" from-port="0" to-layer="1682" to-port="3"/>
		<edge from-layer="1682" from-port="4" to-layer="1683" to-port="0"/>
		<edge from-layer="751" from-port="0" to-layer="1683" to-port="1"/>
		<edge from-layer="752" from-port="0" to-layer="1683" to-port="2"/>
		<edge from-layer="753" from-port="0" to-layer="1683" to-port="3"/>
		<edge from-layer="754" from-port="0" to-layer="1683" to-port="4"/>
		<edge from-layer="750" from-port="5" to-layer="1684" to-port="0"/>
		<edge from-layer="1683" from-port="5" to-layer="1684" to-port="1"/>
		<edge from-layer="1685" from-port="0" to-layer="1686" to-port="0"/>
		<edge from-layer="1686" from-port="1" to-layer="1688" to-port="0"/>
		<edge from-layer="1687" from-port="0" to-layer="1688" to-port="1"/>
		<edge from-layer="1688" from-port="2" to-layer="1690" to-port="0"/>
		<edge from-layer="1689" from-port="0" to-layer="1690" to-port="1"/>
		<edge from-layer="1684" from-port="2" to-layer="1691" to-port="0"/>
		<edge from-layer="1690" from-port="2" to-layer="1691" to-port="1"/>
		<edge from-layer="1692" from-port="0" to-layer="1693" to-port="0"/>
		<edge from-layer="1691" from-port="2" to-layer="1694" to-port="0"/>
		<edge from-layer="1693" from-port="1" to-layer="1694" to-port="1"/>
		<edge from-layer="1695" from-port="0" to-layer="1696" to-port="0"/>
		<edge from-layer="1694" from-port="2" to-layer="1697" to-port="0"/>
		<edge from-layer="1696" from-port="1" to-layer="1697" to-port="1"/>
		<edge from-layer="1697" from-port="2" to-layer="1698" to-port="0"/>
		<edge from-layer="44" from-port="0" to-layer="1698" to-port="1"/>
		<edge from-layer="45" from-port="0" to-layer="1698" to-port="2"/>
		<edge from-layer="46" from-port="0" to-layer="1698" to-port="3"/>
		<edge from-layer="47" from-port="0" to-layer="1698" to-port="4"/>
		<edge from-layer="1699" from-port="0" to-layer="1700" to-port="0"/>
		<edge from-layer="1700" from-port="1" to-layer="1702" to-port="0"/>
		<edge from-layer="1701" from-port="0" to-layer="1702" to-port="1"/>
		<edge from-layer="1702" from-port="2" to-layer="1704" to-port="0"/>
		<edge from-layer="1703" from-port="0" to-layer="1704" to-port="1"/>
		<edge from-layer="1698" from-port="5" to-layer="1705" to-port="0"/>
		<edge from-layer="1704" from-port="2" to-layer="1705" to-port="1"/>
		<edge from-layer="1706" from-port="0" to-layer="1707" to-port="0"/>
		<edge from-layer="1705" from-port="2" to-layer="1708" to-port="0"/>
		<edge from-layer="1707" from-port="1" to-layer="1708" to-port="1"/>
		<edge from-layer="1709" from-port="0" to-layer="1710" to-port="0"/>
		<edge from-layer="1708" from-port="2" to-layer="1711" to-port="0"/>
		<edge from-layer="1710" from-port="1" to-layer="1711" to-port="1"/>
		<edge from-layer="1711" from-port="2" to-layer="1712" to-port="0"/>
		<edge from-layer="40" from-port="0" to-layer="1712" to-port="1"/>
		<edge from-layer="41" from-port="0" to-layer="1712" to-port="2"/>
		<edge from-layer="42" from-port="0" to-layer="1712" to-port="3"/>
		<edge from-layer="43" from-port="0" to-layer="1712" to-port="4"/>
		<edge from-layer="1713" from-port="0" to-layer="1714" to-port="0"/>
		<edge from-layer="1714" from-port="1" to-layer="1716" to-port="0"/>
		<edge from-layer="1715" from-port="0" to-layer="1716" to-port="1"/>
		<edge from-layer="1716" from-port="2" to-layer="1718" to-port="0"/>
		<edge from-layer="1717" from-port="0" to-layer="1718" to-port="1"/>
		<edge from-layer="1712" from-port="5" to-layer="1719" to-port="0"/>
		<edge from-layer="1718" from-port="2" to-layer="1719" to-port="1"/>
		<edge from-layer="1720" from-port="0" to-layer="1721" to-port="0"/>
		<edge from-layer="1719" from-port="2" to-layer="1722" to-port="0"/>
		<edge from-layer="1721" from-port="1" to-layer="1722" to-port="1"/>
		<edge from-layer="1723" from-port="0" to-layer="1724" to-port="0"/>
		<edge from-layer="1722" from-port="2" to-layer="1725" to-port="0"/>
		<edge from-layer="1724" from-port="1" to-layer="1725" to-port="1"/>
		<edge from-layer="1725" from-port="2" to-layer="1726" to-port="0"/>
		<edge from-layer="36" from-port="0" to-layer="1726" to-port="1"/>
		<edge from-layer="37" from-port="0" to-layer="1726" to-port="2"/>
		<edge from-layer="38" from-port="0" to-layer="1726" to-port="3"/>
		<edge from-layer="39" from-port="0" to-layer="1726" to-port="4"/>
		<edge from-layer="1727" from-port="0" to-layer="1728" to-port="0"/>
		<edge from-layer="1728" from-port="1" to-layer="1730" to-port="0"/>
		<edge from-layer="1729" from-port="0" to-layer="1730" to-port="1"/>
		<edge from-layer="1730" from-port="2" to-layer="1732" to-port="0"/>
		<edge from-layer="1731" from-port="0" to-layer="1732" to-port="1"/>
		<edge from-layer="1726" from-port="5" to-layer="1733" to-port="0"/>
		<edge from-layer="1732" from-port="2" to-layer="1733" to-port="1"/>
		<edge from-layer="1734" from-port="0" to-layer="1735" to-port="0"/>
		<edge from-layer="1733" from-port="2" to-layer="1736" to-port="0"/>
		<edge from-layer="1735" from-port="1" to-layer="1736" to-port="1"/>
		<edge from-layer="1737" from-port="0" to-layer="1738" to-port="0"/>
		<edge from-layer="1736" from-port="2" to-layer="1739" to-port="0"/>
		<edge from-layer="1738" from-port="1" to-layer="1739" to-port="1"/>
		<edge from-layer="1739" from-port="2" to-layer="1740" to-port="0"/>
		<edge from-layer="32" from-port="0" to-layer="1740" to-port="1"/>
		<edge from-layer="33" from-port="0" to-layer="1740" to-port="2"/>
		<edge from-layer="34" from-port="0" to-layer="1740" to-port="3"/>
		<edge from-layer="35" from-port="0" to-layer="1740" to-port="4"/>
		<edge from-layer="1741" from-port="0" to-layer="1742" to-port="0"/>
		<edge from-layer="1742" from-port="1" to-layer="1744" to-port="0"/>
		<edge from-layer="1743" from-port="0" to-layer="1744" to-port="1"/>
		<edge from-layer="1744" from-port="2" to-layer="1746" to-port="0"/>
		<edge from-layer="1745" from-port="0" to-layer="1746" to-port="1"/>
		<edge from-layer="1740" from-port="5" to-layer="1747" to-port="0"/>
		<edge from-layer="1746" from-port="2" to-layer="1747" to-port="1"/>
		<edge from-layer="1748" from-port="0" to-layer="1749" to-port="0"/>
		<edge from-layer="1747" from-port="2" to-layer="1750" to-port="0"/>
		<edge from-layer="1749" from-port="1" to-layer="1750" to-port="1"/>
		<edge from-layer="1751" from-port="0" to-layer="1752" to-port="0"/>
		<edge from-layer="1750" from-port="2" to-layer="1753" to-port="0"/>
		<edge from-layer="1752" from-port="1" to-layer="1753" to-port="1"/>
		<edge from-layer="1753" from-port="2" to-layer="1754" to-port="0"/>
		<edge from-layer="28" from-port="0" to-layer="1754" to-port="1"/>
		<edge from-layer="29" from-port="0" to-layer="1754" to-port="2"/>
		<edge from-layer="30" from-port="0" to-layer="1754" to-port="3"/>
		<edge from-layer="31" from-port="0" to-layer="1754" to-port="4"/>
		<edge from-layer="1755" from-port="0" to-layer="1756" to-port="0"/>
		<edge from-layer="1756" from-port="1" to-layer="1758" to-port="0"/>
		<edge from-layer="1757" from-port="0" to-layer="1758" to-port="1"/>
		<edge from-layer="1758" from-port="2" to-layer="1760" to-port="0"/>
		<edge from-layer="1759" from-port="0" to-layer="1760" to-port="1"/>
		<edge from-layer="1754" from-port="5" to-layer="1761" to-port="0"/>
		<edge from-layer="1760" from-port="2" to-layer="1761" to-port="1"/>
		<edge from-layer="1762" from-port="0" to-layer="1763" to-port="0"/>
		<edge from-layer="1761" from-port="2" to-layer="1764" to-port="0"/>
		<edge from-layer="1763" from-port="1" to-layer="1764" to-port="1"/>
		<edge from-layer="1765" from-port="0" to-layer="1766" to-port="0"/>
		<edge from-layer="1764" from-port="2" to-layer="1767" to-port="0"/>
		<edge from-layer="1766" from-port="1" to-layer="1767" to-port="1"/>
		<edge from-layer="1767" from-port="2" to-layer="1768" to-port="0"/>
		<edge from-layer="24" from-port="0" to-layer="1768" to-port="1"/>
		<edge from-layer="25" from-port="0" to-layer="1768" to-port="2"/>
		<edge from-layer="26" from-port="0" to-layer="1768" to-port="3"/>
		<edge from-layer="27" from-port="0" to-layer="1768" to-port="4"/>
		<edge from-layer="1768" from-port="5" to-layer="1769" to-port="0"/>
		<edge from-layer="1640" from-port="5" to-layer="1769" to-port="1"/>
		<edge from-layer="1770" from-port="0" to-layer="1771" to-port="0"/>
		<edge from-layer="1771" from-port="1" to-layer="1773" to-port="0"/>
		<edge from-layer="1772" from-port="0" to-layer="1773" to-port="1"/>
		<edge from-layer="1773" from-port="2" to-layer="1775" to-port="0"/>
		<edge from-layer="1774" from-port="0" to-layer="1775" to-port="1"/>
		<edge from-layer="1769" from-port="2" to-layer="1776" to-port="0"/>
		<edge from-layer="1775" from-port="2" to-layer="1776" to-port="1"/>
		<edge from-layer="1777" from-port="0" to-layer="1778" to-port="0"/>
		<edge from-layer="1776" from-port="2" to-layer="1779" to-port="0"/>
		<edge from-layer="1778" from-port="1" to-layer="1779" to-port="1"/>
		<edge from-layer="1780" from-port="0" to-layer="1781" to-port="0"/>
		<edge from-layer="1779" from-port="2" to-layer="1782" to-port="0"/>
		<edge from-layer="1781" from-port="1" to-layer="1782" to-port="1"/>
		<edge from-layer="1782" from-port="2" to-layer="1783" to-port="0"/>
		<edge from-layer="20" from-port="0" to-layer="1783" to-port="1"/>
		<edge from-layer="21" from-port="0" to-layer="1783" to-port="2"/>
		<edge from-layer="22" from-port="0" to-layer="1783" to-port="3"/>
		<edge from-layer="23" from-port="0" to-layer="1783" to-port="4"/>
		<edge from-layer="1784" from-port="0" to-layer="1785" to-port="0"/>
		<edge from-layer="1785" from-port="1" to-layer="1787" to-port="0"/>
		<edge from-layer="1786" from-port="0" to-layer="1787" to-port="1"/>
		<edge from-layer="1787" from-port="2" to-layer="1789" to-port="0"/>
		<edge from-layer="1788" from-port="0" to-layer="1789" to-port="1"/>
		<edge from-layer="1783" from-port="5" to-layer="1790" to-port="0"/>
		<edge from-layer="1789" from-port="2" to-layer="1790" to-port="1"/>
		<edge from-layer="1791" from-port="0" to-layer="1792" to-port="0"/>
		<edge from-layer="1790" from-port="2" to-layer="1793" to-port="0"/>
		<edge from-layer="1792" from-port="1" to-layer="1793" to-port="1"/>
		<edge from-layer="1794" from-port="0" to-layer="1795" to-port="0"/>
		<edge from-layer="1793" from-port="2" to-layer="1796" to-port="0"/>
		<edge from-layer="1795" from-port="1" to-layer="1796" to-port="1"/>
		<edge from-layer="1796" from-port="2" to-layer="1797" to-port="0"/>
		<edge from-layer="16" from-port="0" to-layer="1797" to-port="1"/>
		<edge from-layer="17" from-port="0" to-layer="1797" to-port="2"/>
		<edge from-layer="18" from-port="0" to-layer="1797" to-port="3"/>
		<edge from-layer="19" from-port="0" to-layer="1797" to-port="4"/>
		<edge from-layer="1798" from-port="0" to-layer="1799" to-port="0"/>
		<edge from-layer="1799" from-port="1" to-layer="1801" to-port="0"/>
		<edge from-layer="1800" from-port="0" to-layer="1801" to-port="1"/>
		<edge from-layer="1801" from-port="2" to-layer="1803" to-port="0"/>
		<edge from-layer="1802" from-port="0" to-layer="1803" to-port="1"/>
		<edge from-layer="1797" from-port="5" to-layer="1804" to-port="0"/>
		<edge from-layer="1803" from-port="2" to-layer="1804" to-port="1"/>
		<edge from-layer="1805" from-port="0" to-layer="1806" to-port="0"/>
		<edge from-layer="1804" from-port="2" to-layer="1807" to-port="0"/>
		<edge from-layer="1806" from-port="1" to-layer="1807" to-port="1"/>
		<edge from-layer="1808" from-port="0" to-layer="1809" to-port="0"/>
		<edge from-layer="1807" from-port="2" to-layer="1810" to-port="0"/>
		<edge from-layer="1809" from-port="1" to-layer="1810" to-port="1"/>
		<edge from-layer="1810" from-port="2" to-layer="1811" to-port="0"/>
		<edge from-layer="12" from-port="0" to-layer="1811" to-port="1"/>
		<edge from-layer="13" from-port="0" to-layer="1811" to-port="2"/>
		<edge from-layer="14" from-port="0" to-layer="1811" to-port="3"/>
		<edge from-layer="15" from-port="0" to-layer="1811" to-port="4"/>
		<edge from-layer="1812" from-port="0" to-layer="1813" to-port="0"/>
		<edge from-layer="1813" from-port="1" to-layer="1815" to-port="0"/>
		<edge from-layer="1814" from-port="0" to-layer="1815" to-port="1"/>
		<edge from-layer="1815" from-port="2" to-layer="1817" to-port="0"/>
		<edge from-layer="1816" from-port="0" to-layer="1817" to-port="1"/>
		<edge from-layer="1811" from-port="5" to-layer="1818" to-port="0"/>
		<edge from-layer="1817" from-port="2" to-layer="1818" to-port="1"/>
		<edge from-layer="1819" from-port="0" to-layer="1820" to-port="0"/>
		<edge from-layer="1818" from-port="2" to-layer="1821" to-port="0"/>
		<edge from-layer="1820" from-port="1" to-layer="1821" to-port="1"/>
		<edge from-layer="1822" from-port="0" to-layer="1823" to-port="0"/>
		<edge from-layer="1821" from-port="2" to-layer="1824" to-port="0"/>
		<edge from-layer="1823" from-port="1" to-layer="1824" to-port="1"/>
		<edge from-layer="1824" from-port="2" to-layer="1825" to-port="0"/>
		<edge from-layer="8" from-port="0" to-layer="1825" to-port="1"/>
		<edge from-layer="9" from-port="0" to-layer="1825" to-port="2"/>
		<edge from-layer="10" from-port="0" to-layer="1825" to-port="3"/>
		<edge from-layer="11" from-port="0" to-layer="1825" to-port="4"/>
		<edge from-layer="1826" from-port="0" to-layer="1827" to-port="0"/>
		<edge from-layer="1827" from-port="1" to-layer="1829" to-port="0"/>
		<edge from-layer="1828" from-port="0" to-layer="1829" to-port="1"/>
		<edge from-layer="1829" from-port="2" to-layer="1831" to-port="0"/>
		<edge from-layer="1830" from-port="0" to-layer="1831" to-port="1"/>
		<edge from-layer="1825" from-port="5" to-layer="1832" to-port="0"/>
		<edge from-layer="1831" from-port="2" to-layer="1832" to-port="1"/>
		<edge from-layer="1833" from-port="0" to-layer="1834" to-port="0"/>
		<edge from-layer="1832" from-port="2" to-layer="1835" to-port="0"/>
		<edge from-layer="1834" from-port="1" to-layer="1835" to-port="1"/>
		<edge from-layer="1836" from-port="0" to-layer="1837" to-port="0"/>
		<edge from-layer="1835" from-port="2" to-layer="1838" to-port="0"/>
		<edge from-layer="1837" from-port="1" to-layer="1838" to-port="1"/>
		<edge from-layer="1838" from-port="2" to-layer="1839" to-port="0"/>
		<edge from-layer="4" from-port="0" to-layer="1839" to-port="1"/>
		<edge from-layer="5" from-port="0" to-layer="1839" to-port="2"/>
		<edge from-layer="6" from-port="0" to-layer="1839" to-port="3"/>
		<edge from-layer="7" from-port="0" to-layer="1839" to-port="4"/>
		<edge from-layer="1840" from-port="0" to-layer="1841" to-port="0"/>
		<edge from-layer="1841" from-port="1" to-layer="1843" to-port="0"/>
		<edge from-layer="1842" from-port="0" to-layer="1843" to-port="1"/>
		<edge from-layer="1843" from-port="2" to-layer="1845" to-port="0"/>
		<edge from-layer="1844" from-port="0" to-layer="1845" to-port="1"/>
		<edge from-layer="1839" from-port="5" to-layer="1846" to-port="0"/>
		<edge from-layer="1845" from-port="2" to-layer="1846" to-port="1"/>
		<edge from-layer="1847" from-port="0" to-layer="1848" to-port="0"/>
		<edge from-layer="1846" from-port="2" to-layer="1849" to-port="0"/>
		<edge from-layer="1848" from-port="1" to-layer="1849" to-port="1"/>
		<edge from-layer="1850" from-port="0" to-layer="1851" to-port="0"/>
		<edge from-layer="1849" from-port="2" to-layer="1852" to-port="0"/>
		<edge from-layer="1851" from-port="1" to-layer="1852" to-port="1"/>
		<edge from-layer="1852" from-port="2" to-layer="1853" to-port="0"/>
		<edge from-layer="0" from-port="0" to-layer="1853" to-port="1"/>
		<edge from-layer="1" from-port="0" to-layer="1853" to-port="2"/>
		<edge from-layer="2" from-port="0" to-layer="1853" to-port="3"/>
		<edge from-layer="3" from-port="0" to-layer="1853" to-port="4"/>
		<edge from-layer="1854" from-port="0" to-layer="1855" to-port="0"/>
		<edge from-layer="1855" from-port="1" to-layer="1857" to-port="0"/>
		<edge from-layer="1856" from-port="0" to-layer="1857" to-port="1"/>
		<edge from-layer="1857" from-port="2" to-layer="1859" to-port="0"/>
		<edge from-layer="1858" from-port="0" to-layer="1859" to-port="1"/>
		<edge from-layer="1853" from-port="5" to-layer="1860" to-port="0"/>
		<edge from-layer="1859" from-port="2" to-layer="1860" to-port="1"/>
		<edge from-layer="1861" from-port="0" to-layer="1862" to-port="0"/>
		<edge from-layer="1860" from-port="2" to-layer="1863" to-port="0"/>
		<edge from-layer="1862" from-port="1" to-layer="1863" to-port="1"/>
		<edge from-layer="1863" from-port="2" to-layer="1865" to-port="0"/>
		<edge from-layer="1864" from-port="0" to-layer="1865" to-port="1"/>
		<edge from-layer="1895" from-port="0" to-layer="1896" to-port="0"/>
		<edge from-layer="1896" from-port="1" to-layer="1898" to-port="0"/>
		<edge from-layer="1897" from-port="0" to-layer="1898" to-port="1"/>
		<edge from-layer="1898" from-port="2" to-layer="1900" to-port="0"/>
		<edge from-layer="1899" from-port="0" to-layer="1900" to-port="1"/>
		<edge from-layer="1839" from-port="5" to-layer="1901" to-port="0"/>
		<edge from-layer="1900" from-port="2" to-layer="1901" to-port="1"/>
		<edge from-layer="1902" from-port="0" to-layer="1903" to-port="0"/>
		<edge from-layer="1901" from-port="2" to-layer="1904" to-port="0"/>
		<edge from-layer="1903" from-port="1" to-layer="1904" to-port="1"/>
		<edge from-layer="1905" from-port="0" to-layer="1906" to-port="0"/>
		<edge from-layer="1904" from-port="2" to-layer="1907" to-port="0"/>
		<edge from-layer="1906" from-port="1" to-layer="1907" to-port="1"/>
		<edge from-layer="1907" from-port="2" to-layer="1908" to-port="0"/>
		<edge from-layer="1891" from-port="0" to-layer="1908" to-port="1"/>
		<edge from-layer="1892" from-port="0" to-layer="1908" to-port="2"/>
		<edge from-layer="1893" from-port="0" to-layer="1908" to-port="3"/>
		<edge from-layer="1894" from-port="0" to-layer="1908" to-port="4"/>
		<edge from-layer="1908" from-port="5" to-layer="1909" to-port="0"/>
		<edge from-layer="1526" from-port="5" to-layer="1909" to-port="1"/>
		<edge from-layer="1910" from-port="0" to-layer="1911" to-port="0"/>
		<edge from-layer="1911" from-port="1" to-layer="1913" to-port="0"/>
		<edge from-layer="1912" from-port="0" to-layer="1913" to-port="1"/>
		<edge from-layer="1913" from-port="2" to-layer="1915" to-port="0"/>
		<edge from-layer="1914" from-port="0" to-layer="1915" to-port="1"/>
		<edge from-layer="1909" from-port="2" to-layer="1916" to-port="0"/>
		<edge from-layer="1915" from-port="2" to-layer="1916" to-port="1"/>
		<edge from-layer="1917" from-port="0" to-layer="1918" to-port="0"/>
		<edge from-layer="1916" from-port="2" to-layer="1919" to-port="0"/>
		<edge from-layer="1918" from-port="1" to-layer="1919" to-port="1"/>
		<edge from-layer="1920" from-port="0" to-layer="1921" to-port="0"/>
		<edge from-layer="1919" from-port="2" to-layer="1922" to-port="0"/>
		<edge from-layer="1921" from-port="1" to-layer="1922" to-port="1"/>
		<edge from-layer="1922" from-port="2" to-layer="1923" to-port="0"/>
		<edge from-layer="1887" from-port="0" to-layer="1923" to-port="1"/>
		<edge from-layer="1888" from-port="0" to-layer="1923" to-port="2"/>
		<edge from-layer="1889" from-port="0" to-layer="1923" to-port="3"/>
		<edge from-layer="1890" from-port="0" to-layer="1923" to-port="4"/>
		<edge from-layer="1924" from-port="0" to-layer="1925" to-port="0"/>
		<edge from-layer="1925" from-port="1" to-layer="1927" to-port="0"/>
		<edge from-layer="1926" from-port="0" to-layer="1927" to-port="1"/>
		<edge from-layer="1927" from-port="2" to-layer="1929" to-port="0"/>
		<edge from-layer="1928" from-port="0" to-layer="1929" to-port="1"/>
		<edge from-layer="1923" from-port="5" to-layer="1930" to-port="0"/>
		<edge from-layer="1929" from-port="2" to-layer="1930" to-port="1"/>
		<edge from-layer="1931" from-port="0" to-layer="1932" to-port="0"/>
		<edge from-layer="1930" from-port="2" to-layer="1933" to-port="0"/>
		<edge from-layer="1932" from-port="1" to-layer="1933" to-port="1"/>
		<edge from-layer="1934" from-port="0" to-layer="1935" to-port="0"/>
		<edge from-layer="1933" from-port="2" to-layer="1936" to-port="0"/>
		<edge from-layer="1935" from-port="1" to-layer="1936" to-port="1"/>
		<edge from-layer="1936" from-port="2" to-layer="1937" to-port="0"/>
		<edge from-layer="1883" from-port="0" to-layer="1937" to-port="1"/>
		<edge from-layer="1884" from-port="0" to-layer="1937" to-port="2"/>
		<edge from-layer="1885" from-port="0" to-layer="1937" to-port="3"/>
		<edge from-layer="1886" from-port="0" to-layer="1937" to-port="4"/>
		<edge from-layer="1938" from-port="0" to-layer="1939" to-port="0"/>
		<edge from-layer="1939" from-port="1" to-layer="1941" to-port="0"/>
		<edge from-layer="1940" from-port="0" to-layer="1941" to-port="1"/>
		<edge from-layer="1941" from-port="2" to-layer="1943" to-port="0"/>
		<edge from-layer="1942" from-port="0" to-layer="1943" to-port="1"/>
		<edge from-layer="1937" from-port="5" to-layer="1944" to-port="0"/>
		<edge from-layer="1943" from-port="2" to-layer="1944" to-port="1"/>
		<edge from-layer="1945" from-port="0" to-layer="1946" to-port="0"/>
		<edge from-layer="1944" from-port="2" to-layer="1947" to-port="0"/>
		<edge from-layer="1946" from-port="1" to-layer="1947" to-port="1"/>
		<edge from-layer="1948" from-port="0" to-layer="1949" to-port="0"/>
		<edge from-layer="1947" from-port="2" to-layer="1950" to-port="0"/>
		<edge from-layer="1949" from-port="1" to-layer="1950" to-port="1"/>
		<edge from-layer="1950" from-port="2" to-layer="1951" to-port="0"/>
		<edge from-layer="1879" from-port="0" to-layer="1951" to-port="1"/>
		<edge from-layer="1880" from-port="0" to-layer="1951" to-port="2"/>
		<edge from-layer="1881" from-port="0" to-layer="1951" to-port="3"/>
		<edge from-layer="1882" from-port="0" to-layer="1951" to-port="4"/>
		<edge from-layer="1952" from-port="0" to-layer="1953" to-port="0"/>
		<edge from-layer="1953" from-port="1" to-layer="1955" to-port="0"/>
		<edge from-layer="1954" from-port="0" to-layer="1955" to-port="1"/>
		<edge from-layer="1955" from-port="2" to-layer="1957" to-port="0"/>
		<edge from-layer="1956" from-port="0" to-layer="1957" to-port="1"/>
		<edge from-layer="1951" from-port="5" to-layer="1958" to-port="0"/>
		<edge from-layer="1957" from-port="2" to-layer="1958" to-port="1"/>
		<edge from-layer="1959" from-port="0" to-layer="1960" to-port="0"/>
		<edge from-layer="1958" from-port="2" to-layer="1961" to-port="0"/>
		<edge from-layer="1960" from-port="1" to-layer="1961" to-port="1"/>
		<edge from-layer="1962" from-port="0" to-layer="1963" to-port="0"/>
		<edge from-layer="1961" from-port="2" to-layer="1964" to-port="0"/>
		<edge from-layer="1963" from-port="1" to-layer="1964" to-port="1"/>
		<edge from-layer="1964" from-port="2" to-layer="1965" to-port="0"/>
		<edge from-layer="1875" from-port="0" to-layer="1965" to-port="1"/>
		<edge from-layer="1876" from-port="0" to-layer="1965" to-port="2"/>
		<edge from-layer="1877" from-port="0" to-layer="1965" to-port="3"/>
		<edge from-layer="1878" from-port="0" to-layer="1965" to-port="4"/>
		<edge from-layer="1966" from-port="0" to-layer="1967" to-port="0"/>
		<edge from-layer="1967" from-port="1" to-layer="1969" to-port="0"/>
		<edge from-layer="1968" from-port="0" to-layer="1969" to-port="1"/>
		<edge from-layer="1969" from-port="2" to-layer="1971" to-port="0"/>
		<edge from-layer="1970" from-port="0" to-layer="1971" to-port="1"/>
		<edge from-layer="1965" from-port="5" to-layer="1972" to-port="0"/>
		<edge from-layer="1971" from-port="2" to-layer="1972" to-port="1"/>
		<edge from-layer="1973" from-port="0" to-layer="1974" to-port="0"/>
		<edge from-layer="1972" from-port="2" to-layer="1975" to-port="0"/>
		<edge from-layer="1974" from-port="1" to-layer="1975" to-port="1"/>
		<edge from-layer="1976" from-port="0" to-layer="1977" to-port="0"/>
		<edge from-layer="1975" from-port="2" to-layer="1978" to-port="0"/>
		<edge from-layer="1977" from-port="1" to-layer="1978" to-port="1"/>
		<edge from-layer="1978" from-port="2" to-layer="1979" to-port="0"/>
		<edge from-layer="1871" from-port="0" to-layer="1979" to-port="1"/>
		<edge from-layer="1872" from-port="0" to-layer="1979" to-port="2"/>
		<edge from-layer="1873" from-port="0" to-layer="1979" to-port="3"/>
		<edge from-layer="1874" from-port="0" to-layer="1979" to-port="4"/>
		<edge from-layer="1980" from-port="0" to-layer="1981" to-port="0"/>
		<edge from-layer="1981" from-port="1" to-layer="1983" to-port="0"/>
		<edge from-layer="1982" from-port="0" to-layer="1983" to-port="1"/>
		<edge from-layer="1983" from-port="2" to-layer="1985" to-port="0"/>
		<edge from-layer="1984" from-port="0" to-layer="1985" to-port="1"/>
		<edge from-layer="1979" from-port="5" to-layer="1986" to-port="0"/>
		<edge from-layer="1985" from-port="2" to-layer="1986" to-port="1"/>
		<edge from-layer="1987" from-port="0" to-layer="1988" to-port="0"/>
		<edge from-layer="1986" from-port="2" to-layer="1989" to-port="0"/>
		<edge from-layer="1988" from-port="1" to-layer="1989" to-port="1"/>
		<edge from-layer="1990" from-port="0" to-layer="1991" to-port="0"/>
		<edge from-layer="1989" from-port="2" to-layer="1992" to-port="0"/>
		<edge from-layer="1991" from-port="1" to-layer="1992" to-port="1"/>
		<edge from-layer="1992" from-port="2" to-layer="1993" to-port="0"/>
		<edge from-layer="1867" from-port="0" to-layer="1993" to-port="1"/>
		<edge from-layer="1868" from-port="0" to-layer="1993" to-port="2"/>
		<edge from-layer="1869" from-port="0" to-layer="1993" to-port="3"/>
		<edge from-layer="1870" from-port="0" to-layer="1993" to-port="4"/>
		<edge from-layer="1994" from-port="0" to-layer="1995" to-port="0"/>
		<edge from-layer="1995" from-port="1" to-layer="1997" to-port="0"/>
		<edge from-layer="1996" from-port="0" to-layer="1997" to-port="1"/>
		<edge from-layer="1997" from-port="2" to-layer="1999" to-port="0"/>
		<edge from-layer="1998" from-port="0" to-layer="1999" to-port="1"/>
		<edge from-layer="1993" from-port="5" to-layer="2000" to-port="0"/>
		<edge from-layer="1999" from-port="2" to-layer="2000" to-port="1"/>
		<edge from-layer="2001" from-port="0" to-layer="2002" to-port="0"/>
		<edge from-layer="2000" from-port="2" to-layer="2003" to-port="0"/>
		<edge from-layer="2002" from-port="1" to-layer="2003" to-port="1"/>
		<edge from-layer="2003" from-port="2" to-layer="2005" to-port="0"/>
		<edge from-layer="2004" from-port="0" to-layer="2005" to-port="1"/>
		<edge from-layer="2011" from-port="0" to-layer="2012" to-port="0"/>
		<edge from-layer="2012" from-port="1" to-layer="2014" to-port="0"/>
		<edge from-layer="2013" from-port="0" to-layer="2014" to-port="1"/>
		<edge from-layer="2014" from-port="2" to-layer="2016" to-port="0"/>
		<edge from-layer="2015" from-port="0" to-layer="2016" to-port="1"/>
		<edge from-layer="1754" from-port="5" to-layer="2017" to-port="0"/>
		<edge from-layer="2016" from-port="2" to-layer="2017" to-port="1"/>
		<edge from-layer="2018" from-port="0" to-layer="2019" to-port="0"/>
		<edge from-layer="2017" from-port="2" to-layer="2020" to-port="0"/>
		<edge from-layer="2019" from-port="1" to-layer="2020" to-port="1"/>
		<edge from-layer="2021" from-port="0" to-layer="2022" to-port="0"/>
		<edge from-layer="2020" from-port="2" to-layer="2023" to-port="0"/>
		<edge from-layer="2022" from-port="1" to-layer="2023" to-port="1"/>
		<edge from-layer="2023" from-port="2" to-layer="2024" to-port="0"/>
		<edge from-layer="2007" from-port="0" to-layer="2024" to-port="1"/>
		<edge from-layer="2008" from-port="0" to-layer="2024" to-port="2"/>
		<edge from-layer="2009" from-port="0" to-layer="2024" to-port="3"/>
		<edge from-layer="2010" from-port="0" to-layer="2024" to-port="4"/>
		<edge from-layer="2025" from-port="0" to-layer="2026" to-port="0"/>
		<edge from-layer="2026" from-port="1" to-layer="2028" to-port="0"/>
		<edge from-layer="2027" from-port="0" to-layer="2028" to-port="1"/>
		<edge from-layer="2028" from-port="2" to-layer="2030" to-port="0"/>
		<edge from-layer="2029" from-port="0" to-layer="2030" to-port="1"/>
		<edge from-layer="2024" from-port="5" to-layer="2031" to-port="0"/>
		<edge from-layer="2030" from-port="2" to-layer="2031" to-port="1"/>
		<edge from-layer="2032" from-port="0" to-layer="2033" to-port="0"/>
		<edge from-layer="2031" from-port="2" to-layer="2034" to-port="0"/>
		<edge from-layer="2033" from-port="1" to-layer="2034" to-port="1"/>
		<edge from-layer="2034" from-port="2" to-layer="2036" to-port="0"/>
		<edge from-layer="2035" from-port="0" to-layer="2036" to-port="1"/>
		<edge from-layer="1865" from-port="2" to-layer="1866" to-port="0"/>
		<edge from-layer="2005" from-port="2" to-layer="2006" to-port="0"/>
		<edge from-layer="2036" from-port="2" to-layer="2037" to-port="0"/>
	</edges>
	<meta_data>
		<MO_version value="2022.1.0-7019-cdb9bec7210-releases/2022/1"/>
		<Runtime_version value="2022.1.0-7019-cdb9bec7210-releases/2022/1"/>
		<legacy_path value="True"/>
		<cli_parameters>
			<caffe_parser_path value="DIR"/>
			<compress_fp16 value="True"/>
			<data_type value="FP16"/>
			<disable_nhwc_to_nchw value="False"/>
			<disable_omitting_optional value="False"/>
			<disable_resnet_optimization value="False"/>
			<disable_weights_compression value="False"/>
			<enable_concat_optimization value="False"/>
			<enable_flattening_nested_params value="False"/>
			<enable_ssd_gluoncv value="False"/>
			<extensions value="DIR"/>
			<framework value="tf"/>
			<freeze_placeholder_with_value value="{}"/>
			<input value="image_input"/>
			<input_model_is_text value="False"/>
			<input_shape value="[1, 608, 608, 3]"/>
			<k value="DIR/CustomLayersMapping.xml"/>
			<layout value="image_input(NHWC)"/>
			<layout_values value="{'image_input': {'source_layout': 'NHWC', 'target_layout': None, 'is_input': True}}"/>
			<legacy_mxnet_model value="False"/>
			<log_level value="ERROR"/>
			<mean_scale_values value="{'image_input': {'mean': None, 'scale': array([255.])}}"/>
			<mean_values value="()"/>
			<model_name value="yolo-v4-tf"/>
			<output_dir value="DIR"/>
			<packed_user_shapes value="defaultdict(&lt;class 'list'&gt;, {'image_input': [{'shape': (1, 608, 608, 3), 'port': None, 'added': True}]})"/>
			<placeholder_data_types value="{}"/>
			<placeholder_shapes value="{'image_input': (1, 608, 608, 3)}"/>
			<progress value="False"/>
			<remove_memory value="False"/>
			<remove_output_softmax value="False"/>
			<reverse_input_channels value="True"/>
			<save_params_from_nd value="False"/>
			<saved_model_dir value="DIR"/>
			<scale_values value="image_input[255]"/>
			<silent value="False"/>
			<source_layout value="()"/>
			<static_shape value="False"/>
			<stream_output value="False"/>
			<target_layout value="()"/>
			<transform value=""/>
			<use_legacy_frontend value="False"/>
			<use_new_frontend value="False"/>
			<unset unset_cli_parameters="batch, counts, disable_fusing, finegrain_fusing, input_checkpoint, input_meta_graph, input_model, input_proto, input_symbol, mean_file, mean_file_offsets, nd_prefix_name, output, pretrained_model_name, saved_model_tags, scale, tensorboard_logdir, tensorflow_custom_layer_libraries, tensorflow_custom_operations_config_update, tensorflow_object_detection_api_pipeline_config, tensorflow_use_custom_operations_config, transformations_config"/>
		</cli_parameters>
	</meta_data>
	<quantization_parameters>
		<config>{
		'compression': {
			'algorithms': [
				{
					'name': 'DefaultQuantization',
					'params': {
						'preset': 'mixed',
						'stat_subset_size': 300
					}
				}
			]
		},
		'engine': {
			'models': [
				{
					'name': 'yolo-v4-tf',
					'launchers': [
						{
							'framework': 'openvino',
							'adapter': {
								'type': 'yolo_v3',
								'anchors': '12,16,19,36,40,28,36,75,76,55,72,146,142,110,192,243,459,401',
								'num': 3,
								'coords': 4,
								'classes': 80,
								'threshold': 0.001,
								'anchor_masks': [
									[
										0,
										1,
										2
									],
									[
										3,
										4,
										5
									],
									[
										6,
										7,
										8
									]
								],
								'raw_output': true,
								'output_format': 'HWB',
								'outputs': [
									'Func/StatefulPartitionedCall/output/_544',
									'Func/StatefulPartitionedCall/output/_542',
									'Func/StatefulPartitionedCall/output/_543'
								]
							},
							'model': 'PATH',
							'device': 'cpu'
						}
					],
					'datasets': [
						{
							'name': 'ms_coco_detection_80_class_without_background',
							'data_source': 'PATH',
							'annotation_conversion': {
								'converter': 'mscoco_detection',
								'annotation_file': 'PATH',
								'has_background': false,
								'sort_annotations': true,
								'use_full_label_map': false
							},
							'annotation': 'PATH',
							'dataset_meta': 'PATH',
							'preprocessing': [
								{
									'type': 'resize',
									'size': 608
								}
							],
							'postprocessing': [
								{
									'type': 'resize_prediction_boxes'
								},
								{
									'type': 'filter',
									'apply_to': 'prediction',
									'min_confidence': 0.001,
									'remove_filtered': true
								},
								{
									'type': 'diou_nms',
									'overlap': 0.5
								},
								{
									'type': 'clip_boxes',
									'apply_to': 'prediction'
								}
							],
							'metrics': [
								{
									'type': 'map',
									'integral': '11point',
									'ignore_difficult': true,
									'presenter': 'print_scalar',
									'reference': 0.7123
								},
								{
									'name': 'AP@0.5',
									'type': 'coco_precision',
									'max_detections': 100,
									'threshold': 0.5,
									'reference': 0.774
								},
								{
									'name': 'AP@0.5:0.05:95',
									'type': 'coco_precision',
									'max_detections': 100,
									'threshold': '0.5:0.05:0.95',
									'reference': 0.5026
								}
							],
							'_command_line_mapping': {
								'annotation_file': 'PATH'
							}
						}
					]
				}
			],
			'stat_requests_number': null,
			'eval_requests_number': null,
			'type': 'accuracy_checker'
		}
	}</config>
		<version value="2022.1.0-7019-cdb9bec7210-releases/2022/1"/>
		<cli_params value="{'quantize': None, 'preset': None, 'model': None, 'weights': None, 'name': None, 'engine': None, 'ac_config': None, 'max_drop': None, 'evaluate': False, 'output_dir': 'PATH', 'direct_dump': True, 'log_level': 'INFO', 'pbar': False, 'stream_output': False, 'keep_uncompressed_weights': False, 'data_source': None}"/>
	</quantization_parameters>
</net>
